dicewars/ai/xklemr00/model.pth (torch, 68353 bytes, 12 tensors)

gcn1.weight f4 [34, 12]
-0.14630711 -0.2514531 0.062158387 -0.050237462 -0.24062863 -0.029863149 -0.13755828 -0.24320735
0.12933601 -0.2601868 -0.003145739 0.17059694 0.26107615 0.24452376 -0.26321533 0.09261571
-0.27529162 -0.050173044 0.054428525 -0.15259667 0.096423686 -0.008516607 0.08889937 0.064749666
0.14170492 -0.23993778 -0.27870026 -0.047593392 0.21919382 -0.033796046 -0.2584694 0.08303003
-0.09206957 -0.18796596 -0.008769988 0.08608134 0.0018057406 0.09384214 -0.2589811 0.08384644
0.22206305 -0.114392236 -0.021194164 -0.22100292 -0.07437123 0.08732922 0.12867254 -0.04303023
-0.121565714 -0.15517119 -0.024413029 0.048563626 -0.13489945 0.27657673 -0.18144426 0.02076569
0.26275495 0.014063702 -0.049765185 0.031570368 -0.16686513 0.050875578 0.125015 0.0045923823
-0.23207168 0.090758175 -0.15712933 -0.0073116785 0.25187007 0.20606765 -0.11549379 0.27370882
0.2431866 -0.21742824 -0.124555945 -0.10774118 -0.18110904 0.081915885 0.2111966 0.0895965
-0.023491833 0.28717962 -0.19747104 0.26370904 -0.24584763 -0.06371112 0.06128826 0.2497034
-0.13670957 -0.11271658 -0.16125856 0.25808525 -0.27299407 -0.095243394 -0.26708367 -0.15673858
-0.13813016 0.12199415 -0.04015917 0.05020233 -0.064333476 -0.065098375 -0.1158947 0.069436304
0.047019802 -0.1702768 0.029748108 -0.0005073473 -0.22102757 0.07550878 0.036085974 0.080858245
0.23061454 0.01661324 0.19707625 0.16811717 0.027851827 -0.26250345 -0.02544135 0.15320897
0.13367514 -0.06040241 0.0652258 0.24894385 0.00018441796 -0.21181306 0.28562686 -0.20896485
0.16408835 0.25848186 -0.25971115 -0.26197043 -0.043668274 -0.1857515 0.0014271315 -0.17358778
-0.10453195 0.2466547 -0.11703097 -0.2604289 -0.25040385 -0.28025514 -0.14220297 0.19077893
0.2702914 -0.12722634 -0.109706044 -0.11826202 0.28748745 -0.22391242 0.14362636 -0.25429857
-0.2194986 0.28687015 -0.10544148 0.09678681 -0.2650401 0.22981301 0.20080574 0.062564455
-0.19587387 0.2532061 0.14756146 0.25173563 0.11661964 0.23305844 0.20683774 0.12513542
0.26903385 0.027635336 -0.15373132 0.03449342 -0.06944415 0.18867438 -0.019381506 -0.06949092
0.10207071 -0.041226655 0.054059036 0.23686063 0.12459851 0.11284101 0.15977447 0.037168395
-0.12121491 0.030835 0.27461734 -0.100737184 -0.14629231 -0.23488688 0.27044293 0.09390395
-0.05439528 -0.115626656 -0.098642066 0.12140081 0.09574228 -0.26704505 -0.016349329 0.0013972612
-0.08626098 0.12452762 0.19994314 0.12605844 -0.10952276 -0.021030014 0.13740101 0.12876566
0.27068838 0.03186945 -0.20603538 -0.26991463 0.24980427 0.08894404 -0.26562163 0.006480232
0.11041577 -0.17057699 -0.21563292 0.1218459 -0.068873346 -0.042526837 -0.078628436 0.2557248
0.26916873 -0.20482308 -0.21659923 -0.20868519 0.06059364 0.2521917 -0.02804103 0.24787357
0.11932438 -0.28710333 0.0118522355 0.11064582 0.026778769 -0.27879673 -0.2231987 0.13986263
0.11226739 0.2834561 0.008202109 0.05402252 -0.0744701 0.23167504 0.23998727 -0.26748824
-0.09252111 0.06322849 0.1335712 -0.0728962 0.20230328 0.18677689 -0.17248462 -0.22026794
00000000: 88d1 15be 76be 80be cb99 7e3d ccc5 4dbd
00000010: 5a67 76be 90a3 f4bc 14dc 0cbe 590b 79be
00000020: a970 043e 3437 85be be28 4ebb f7b0 2e3e
00000030: c6ab 853e 7064 7a3e 29c4 86be 4ead bd3d
00000040: 06f3 8cbe 4082 4dbd 72f0 5e3d 4d42 1cbe
00000050: c879 c53d 3d89 0bbc df10 b63d 799b 843d
00000060: 181b 113e 40b2 75be cdb1 8ebe 4af1 42bd
00000070: 5874 603e b96d 0abd 1a56 84be a60b aa3d
00000080: f98e bcbd 267a 40be ffaf 0fbc 6a4b b03d
00000090: 9aae ec3a 4f30 c03d 2c99 84be afb7 ab3d
000000a0: 7f64 633e 7a46 eabd 629f adbc 974e 62be
000000b0: f24f 98bd a9d9 b23d bcc2 033e 7740 30bd
000000c0: 72f7 f8bd 32e5 1ebe d5fd c7bc a7ea 463d
000000d0: 1523 0abe 779b 8d3e 86cc 39be cf1c aa3c
000000e0: d187 863e 716b 663c 94d6 4bbd ee4f 013d
000000f0: b1de 2abe e962 503d ef03 003e b27b 963b
00000100: 33a4 6dbe 6cdf b93d 83e6 20be ce96 efbb
00000110: 1df5 803e 6603 533e 0288 ecbd 9023 8c3e
00000120: e805 793e 82a5 5ebe 3017 ffbd 68a7 dcbd
00000130: a674 39be 84c3 a73d ec43 583e 5f7e b73d
00000140: f271 c0bc 3509 933e d935 4abe df04 873e
00000150: 7bbf 7bbe fa7a 82bd 6609 7b3d 40b2 7f3e
00000160: 98fd 0bbe f3d7 e6bd f720 25be c023 843e
00000170: e1c5 8bbe f80e c3bd 31bf 88be 1480 20be
00000180: fe71 0dbe 12d8 f93d f17d 24bd f5a0 4d3d
00000190: 45c1 83bd 4c52 85bd 335a edbd 9f34 8e3d
000001a0: d697 403d 0b5d 2ebe 4eb2 f33c 80ff 04ba
000001b0: 0d55 62be 59a4 9a3d e3ce 133d 0299 a53d
000001c0: 3826 6c3e 7d18 883c 5bce 493e e826 2c3e
000001d0: 8429 e43c da66 86be 616a d0bc d0e2 1c3e
000001e0: 23e2 083e 8468 77bd 1b95 853d 23eb 7e3e
000001f0: 5260 4139 86e5 58be af3d 923e e2fa 55be
00000200: c706 283e bc57 843e dcf8 84be fd20 86be
00000210: 81dd 32bd a435 3ebe 960e bb3a ffc0 31be
00000220: d914 d6bd 0d93 7c3e efad efbd f056 85be
00000230: ef34 80be 9a7d 8fbe a89d 11be 8d5b 433e
00000240: a263 8a3e 9f47 02be 90ad e0bd 5c33 f2bd
00000250: 8e31 933e 4c49 65be ca12 133e 6c33 82be
00000260: 3ec4 60be a5e0 923e b4f1 d7bd 2a38 c63d
00000270: 56b3 87be 1a54 6b3e 05a0 4d3e cb21 803d
00000280: 2993 48be 3ba4 813e 5a1a 173e 7ee3 803e
00000290: 47d6 ee3d dfa6 6e3e 46cd 533e 8023 003e
000002a0: cebe 893e 8063 e23c be6b 1dbe f948 0d3d
000002b0: bc38 8ebd db33 413e f7c5 9ebc 4151 8ebd
000002c0: 730a d13d 48dd 28bd 026d 5d3d 988b 723e
000002d0: 812d ff3d 3019 e73d eb9b 233e e33d 183d
000002e0: 863f f8bd af99 fc3c a59a 8c3e 4c4f cebd
000002f0: a7cd 15be 3086 70be 7f77 8a3e b750 c03d
00000300: 96cd 5ebd abcd ecbd da04 cabd fda0 f83d
00000310: 8714 c43d 21ba 88be 07ef 85bc 4e24 b73a
00000320: 99a9 b0bd 5608 ff3d e5bd 4c3e 7715 013e
00000330: 784d e0bd 2347 acbc dab2 0c3e 25db 033e
00000340: ab97 8a3e 8a89 023d f0fa 52be 4032 8abe
00000350: b1cc 7f3e 4b28 b63d 8fff 87be 2058 d43b
00000360: aa21 e23d bcab 2ebe e0ce 5cbe 588a f93d
00000370: 780d 8dbd 9f30 2ebd f207 a1bd 5cee 823e
00000380: 7cd0 893e 24bd 51be 30cc 5dbe 92b1 55be
00000390: 0931 783d 451f 813e 4db6 e5bc 92d2 7d3e
000003a0: 5760 f43d 35ff 92be e12f 423c 479a e23d
000003b0: 265f db3c 72be 8ebe 338e 64be 2638 0f3e
000003c0: 72ec e53d 2821 913e 2362 063c b846 5d3d
000003d0: c883 98bd 393c 6d3e 39bf 753e 38f4 88be
000003e0: b57b bdbd f07d 813d e3c6 083e 9a4a 95bd
000003f0: 9728 4f3e 7142 3f3e cf9f 30be eb8d 61be

gcn1.bias f4 [1, 12]
0.12796989 0.19319642 0.21707205 -0.2730627 0.22749135 -0.17045031 -0.104533605 -0.099948585
0.024858536 -0.07681901 0.20879042 0.113054164
00000000: 8a0a 033e 48d5 453e 2348 5e3e e0ce 8bbe
00000010: 7ef3 683e 878a 2ebe b715 d6bd d8b1 ccbd
00000020: 21a4 cb3c 4953 9dbd 28cd 553e f188 e73d

gcn2.weight f4 [34, 12]
-0.087425716 0.19659753 -0.28175235 0.12643556 0.22606497 -0.08866691 0.040336672 -0.15266682
-0.27971962 -0.0729578 0.072929375 0.06348452 -0.062404815 -0.27870506 0.27464876 -0.22239561
0.0596551 -0.17715757 0.25695035 -0.2551029 0.0829556 0.21698007 0.05936032 -0.26789317
-0.07358893 -0.21281981 0.0931988 -0.18095773 0.07471691 0.05192049 0.24716295 -0.15215746
-0.09777263 -0.19971475 0.14502616 0.1930947 -0.25134036 0.13693754 -0.15716891 -0.072397456
0.11035218 -0.034704853 0.279502 0.07416933 -0.2155983 -0.06113619 -0.17296998 -0.27405635
-0.06314087 -0.14692228 -0.18759997 -0.10863488 0.1112828 0.017655155 0.066128895 0.12850484
0.27878687 -0.11521505 0.074907385 -0.048146784 0.021913046 -0.16607156 -0.16543014 0.28025392
-0.090204924 -0.17699744 -0.12118404 -0.14246035 -0.030511623 -0.11579528 0.13003814 -0.17364216
-0.04265764 0.12667635 -0.27713034 0.20907967 -0.27745926 -0.112876765 -0.09743411 0.28286168
0.022410998 -0.12522252 0.001300286 0.1972472 0.041042134 -0.17526616 -0.16254443 -0.077921115
0.0010632854 -0.07110932 -0.12646891 0.118744485 -0.08788836 0.00013458829 0.09943945 0.2511558
0.063595325 0.27711692 -0.20486186 0.14476508 0.17394447 -0.002926392 -0.1354676 0.14350492
-0.20808403 -0.23899505 0.028008783 0.23631103 0.21641102 -0.22535875 0.017645279 -0.016005442
0.20983106 -0.0714371 0.01039981 -0.10479063 -0.060882844 0.017064288 -0.118849896 -0.28643906
0.07252898 -0.041522812 -0.1548177 0.23667604 -0.17136659 0.2056865 0.046507638 0.08892717
0.08594307 0.13295744 0.18422769 -0.2014202 0.10225038 -0.05212287 -0.13016908 -0.18477352
0.2836082 0.22302677 0.07366942 -0.14453533 0.07504435 -0.012448023 0.27378798 0.21481223
-0.26916865 0.24377577 0.21411094 0.021323452 0.18621005 -0.051880363 0.07411985 -0.09617915
0.06696193 0.16076174 -0.040232953 0.060735248 -0.20219082 0.14576288 -0.058862437 -0.22468726
0.16267873 -0.22811209 -0.06833572 0.1847696 -0.08897869 -0.11898242 0.11018046 -0.21411018
-0.16318601 0.20167786 0.11814357 -0.14406009 -0.16176456 -0.044870485 0.2603855 -0.016584678
0.09237785 -0.17765813 -0.032939855 -0.04026733 0.24506392 0.05432377 -0.10044915 0.08280528
-0.19896087 -0.06300477 0.28564563 -0.2106613 0.025034593 -0.2638243 -0.23697361 -0.04972826
-0.25356638 -0.107525826 -0.15550007 -0.05982947 0.060894683 -0.20293093 -0.15073207 -0.16916382
-0.10872394 0.27184948 -0.20720056 0.25605825 0.24286796 -0.07886984 0.07161054 0.047496486
0.1705529 -0.2745272 0.096717395 0.11832909 -0.0626072 -0.27711394 0.18682076 0.04863655
-0.26726514 -0.21769682 0.17418076 0.0058345455 -0.25814283 0.018453771 0.2663532 0.16923375
0.036746837 0.25199804 0.100464635 -0.23668405 -0.2682454 -0.2659577 0.19973914 0.2078814
0.26442763 0.22183537 -0.014455973 0.20778422 0.158297 -0.0875304 0.14932607 0.084771216
-0.117605425 0.16198277 0.17785415 0.16064446 -0.037697352 0.042307973 -0.17990133 -0.20083329
0.23747559 0.19635041 -0.0017253524 0.22365996 -0.2153074 -0.062381517 0.1300622 -0.053304568
00000000: 410c b3bd dd50 493e d841 90be 5378 013e
00000010: 937d 673e ff96 b5bd 1138 253d b154 1cbe
00000020: 6937 8fbe e66a 95bd ff5b 953d 2c04 823d
00000030: 319c 7fbd 6eb2 8ebe c39e 8c3e adbb 63be
00000040: e858 743d cb68 35be ff8e 833e d99c 82be
00000050: a0e4 a93d 0630 5e3e cf23 733d 4b29 89be
00000060: cbb5 96bd 70ed 59be 03df be3d fc4c 39be
00000070: 2e05 993d 94aa 543d 4918 7d3e 2acf 1bbe
00000080: 043d c8bd 0682 4cbe bd81 143e 9eba 453e
00000090: afaf 80be 5b39 0c3e e3f0 20be 1e45 94bd
000000a0: 5300 e23d ad26 0ebd e31a 8f3e 17e6 973d
000000b0: cdc5 5cbe f169 7abd 0b1f 31be 1d51 8cbe
000000c0: 0050 81bd cb72 16be 351a 40be f77b debd
000000d0: 3de8 e33d 8ba1 903c 966e 873d c696 033e
000000e0: 27bd 8e3e def5 ebbd 0b69 993d 9035 45bd
000000f0: fd82 b33c aa0e 2abe 8566 29be 717d 8f3e
00000100: 5cbd b8bd d13e 35be 572f f8bd 20e1 11be
00000110: 83f3 f9bc 1326 edbd b828 053e 40cf 31be
00000120: c7b9 2ebd 72b7 013e 07e4 8dbe fb18 563e
00000130: 240f 8ebe ef2b e7bd 898b c7bd 3fd3 903e
00000140: 4597 b73c 553a 00be 5c6e aa3a 2cfb 493e
00000150: cc1b 283d f978 33be 0c72 26be 1b95 9fbd
00000160: f05d 8b3a c3a1 91bd 1181 01be 4f30 f33d
00000170: d0fe b3bd 4520 0d39 e9a6 cb3d 7e97 803e
00000180: 443e 823d 45e2 8d3e 4fc7 51be 4c3d 143e
00000190: 801e 323e b6c8 3fbb 05b8 0abe f4f2 123e
000001a0: fb13 55be 1ebb 74be ad72 e53c 85fb 713e
000001b0: da9a 5d3e 72c4 66be d58c 903c d81d 83bc
000001c0: f4dd 563e 9d4d 92bd f763 2a3c 789c d6bd
000001d0: 4a60 79bd 68ca 8b3c 9367 f3bd 24a8 92be
000001e0: 138a 943d d313 2abd 8888 1ebe 345b 723e
000001f0: b97a 2fbe 7b9f 523e cb7e 3e3d 731f b63d
00000200: ec02 b03d ff25 083e 2fa6 3c3e 1941 4ebe
00000210: a668 d13d ca7e 55bd 0b4b 05be 4535 3dbe
00000220: 1835 913e 2161 643e fedf 963d 1201 14be
00000230: dab0 993d cbf2 4bbc f02d 8c3e bdf7 5b3e
00000240: 79d0 89be 5ba0 793e e63f 5b3e 85ae ae3c
00000250: d9ad 3e3e 8180 54bd 26cc 973d 93f9 c4bd
00000260: 5623 893d ba9e 243e 4fcb 24bd 86c5 783d
00000270: 1c0b 4fbe dd42 153e bd19 71bd 6b14 66be
00000280: 4195 263e 3796 69be 99f3 8bbd 3e34 3d3e
00000290: 763a b6bd 0ead f3bd 4ba6 e13d b33f 5bbe
000002a0: 3c1a 27be a484 4e3e 42f5 f13d 7d84 13be
000002b0: 9ca5 25be 1dca 37bd 4051 853e 97dc 87bc
000002c0: 9930 bd3d 03ec 35be f1eb 06bd 5bef 24bd
000002d0: 09f2 7a3e 9a82 5e3d 49b8 cdbd d195 a93d
000002e0: 66bc 4bbe a508 81bd 2540 923e 99b7 57be
000002f0: 5915 cd3c fb13 87be 36a9 72be dcaf 4bbd
00000300: 74d3 81be 8036 dcbd 693b 1fbe bf0f 75bd
00000310: b46c 793d 20cd 4fbe 8259 1abe 4839 2dbe
00000320: a8aa debd db2f 8b3e 622c 54be 111a 833e
00000330: 61b2 783e 8386 a1bd 8ca8 923d ad8b 423d
00000340: 6ba5 2e3e d48e 8cbe c513 c63d 8656 f23d
00000350: 3438 80bd e1e1 8dbe f14d 3f3e 1e37 473d
00000360: fad6 88be eaeb 5ebe 715c 323e b72f bf3b
00000370: 4c2b 84be 5d2c 973c 725f 883e 9d4b 2d3e
00000380: da83 163d e305 813e 67c0 cd3d 4e5d 72be
00000390: 7657 89be 9c2b 88be 6b88 4c3e ddde 543e
000003a0: 0f63 873e d028 633e bfd8 6cbc 63c5 543e
000003b0: 9c18 223e 2343 b3bd efe8 183e 889c ad3d
000003c0: 1ddb f0bd d0de 253e 661f 363e fb7f 243e
000003d0: 8a68 1abd 204b 2d3d 0e38 38be 3ea7 4dbe
000003e0: cd2c 733e 1510 493e 3825 e2ba 1e07 653e
000003f0: 8b79 5cbe c383 7fbd 062f 053e e455 5abd

gcn2.bias f4 [1, 12]
-0.22125007 -0.20586024 0.051356774 0.2194057 -0.2831331 -0.049663767 -0.015203246 -0.28659865
-0.015566507 0.028745595 0.09115581 0.024351396
00000000: 618f 62be 07cd 52be 7b5b 523d e3ab 603e
00000010: d2f6 90be 3c6c 4bbd 0917 79bc 0fbd 92be
00000020: aa0a 7fbc e27b eb3c e6af ba3d 947c c73c

gcn3.weight f4 [34, 12]
0.23565064 -0.21544269 -0.045567892 0.24395241 0.1885616 0.2601161 -0.06966006 0.12672557
0.17701073 0.22951685 0.07750575 0.06016995 -0.014639875 0.089637555 0.033597484 -3.5273075e-05
0.2066747 -0.15671858 0.2624388 -0.123660624 0.020951554 0.24008049 -0.13592248 0.23315418
0.08075834 -0.1473602 0.14865737 0.043423943 0.029032426 0.18110391 -0.024749724 -0.034260448
-0.058050502 -0.18782851 0.123943605 -0.16385448 0.2859205 0.039477006 0.07960655 -0.22937961
-0.04667884 0.12164586 0.15303367 -0.04702579 0.17830467 0.1915253 0.23357749 0.14333433
0.074741036 -0.1878526 0.040117737 -0.10909721 0.11183224 -0.16816905 0.260102 -0.1919804
-0.16656037 -0.26645446 0.1564781 -0.10219439 0.014036517 0.033419605 -0.0067399107 -0.23138377
0.11516002 0.12045559 -0.20926085 0.04576938 0.2701727 -0.15276666 0.012048044 0.17289403
0.2251096 0.12876582 0.1746722 0.17325553 0.23169318 0.19277 -0.17076688 0.25427276
-0.18564014 -0.19189999 -0.11184876 0.24553262 -0.0045839855 -0.204845 0.07087844 -0.08325709
0.026310824 0.16193019 -0.261803 -0.112231635 0.005697307 0.00020895425 -0.19072913 0.18207157
0.0044505675 -0.113951 0.11345611 -0.09451928 0.024738127 -0.25767058 -0.12741606 -0.23642077
-0.0017082837 0.12244933 0.09163515 0.08511001 0.23352249 0.16976433 -0.26884001 0.12347752
-0.091656655 -0.24379863 0.12617327 -0.02229895 -0.024253458 0.018236559 0.20608276 0.01316226
-0.08036714 -0.048646457 -0.28599137 0.19524832 0.12849799 -0.13797307 0.19033775 -0.06381564
-0.1859007 0.18677741 0.11278234 -0.16305886 -0.024124548 -0.14149934 -0.21733366 0.07639037
0.012964077 -0.23279765 -0.083245695 -0.00037647557 0.19568528 -0.20866698 -0.21490729 -0.20540544
0.045290492 -0.22455274 0.1878123 -0.122013524 -0.033795528 -0.23157835 -0.07244343 0.043430205
-0.04405518 -0.25265545 -0.23325813 0.19362317 -0.08390109 -0.08426363 0.054975513 0.240204
0.24545743 0.05721145 -0.015357037 -0.0627815 -0.20952985 -0.23686355 -0.18121924 0.027587606
0.2584104 -0.13509299 -0.2284975 0.15155701 0.1079405 0.22219086 -0.22497518 -0.073365554
-0.19999376 -0.13666321 0.03346854 -0.21273027 0.115991674 -0.10047028 0.029867796 0.27311775
-0.05519889 0.24599443 -0.21719667 -0.08059447 -0.19655469 0.13470994 -0.094072536 -0.10032647
0.1612335 0.28195405 -0.16752188 -0.16521575 -0.10112959 -0.11858894 0.21573515 -0.09662341
0.27095827 -0.26066396 -0.026309619 0.1166247 -0.27811557 0.0758855 -0.26424566 0.16471598
-0.12627609 0.2264518 0.15141648 0.2440836 0.15193745 -0.049308937 0.15593773 0.26519707
0.07348721 0.038464446 -0.15914111 0.029830629 0.17760469 -0.09851347 0.04825336 0.19375773
0.08611593 -0.10501432 0.12361238 -0.22025366 -0.109179534 0.032288387 0.15038574 -0.008508417
-0.2548653 0.010008641 -0.23141922 -0.2492144 -0.2426015 0.06360844 0.27179873 0.008995736
0.18169393 0.017554877 -0.14310452 0.2641681 -0.19479403 -0.1717935 -0.032173622 0.21440437
-0.014702679 0.010801511 -0.24655068 0.1831672 -0.1731395 -0.042128753 -0.1346193 0.03983779
00000000: 674e 713e 029d 5cbe 66a5 3abd a9ce 793e
00000010: 4b16 413e f02d 853e efa9 8ebd 59c4 013e
00000020: 4d42 353e 7706 6b3e 56bb 9e3d c474 763d
00000030: 16dc 6fbc e593 b73d 849d 093d 2df2 13b8
00000040: 88a2 533e d67a 20be 615e 863e c841 fdbd
00000050: 98a2 ab3c a9d7 753e 432f 0bbe f8bf 6e3e
00000060: a164 a53d 98e5 16be a339 183e 4edd 313d
00000070: 69d5 ed3c 4e73 393e efbf cabc af54 0cbd
00000080: 5dc6 6dbd 1e56 40be 25d6 fd3d 78c9 27be
00000090: 2c64 923e a4b2 213d c208 a33d 7de2 6abe
000000a0: 5032 3fbd 7721 f93d dcb4 1c3e 1d9e 40bd
000000b0: 8095 363e 351f 443e f02e 6f3e 3cc6 123e
000000c0: d411 993d 6f5c 40be 7f52 243d 5c6e dfbd
000000d0: 4d08 e53d 8234 2cbe 172c 853e 8396 44be
000000e0: cd8e 2abe b86c 88be cc3b 203e 4b4b d1bd
000000f0: 6bf9 653c ffe2 083d 78da dcbb deef 6cbe
00000100: 04d9 eb3d 6cb1 f63d 7a48 56be ac78 3b3d
00000110: 1354 8a3e dd6e 1cbe 2965 453c 220b 313e
00000120: 2283 663e 30db 033e 45dd 323e e669 313e
00000130: fa40 6d3e 8065 453e 83dd 2ebe 0a30 823e
00000140: 7318 3ebe 6e81 44be f610 e5bd e76c 7b3e
00000150: 4235 96bb e3c2 51be b728 913d b182 aabd
00000160: cc89 d73c 07d1 253e 0b0b 86be b3d9 e5bd
00000170: 7ab0 ba3b bb1a 5b39 7f4e 43be f870 3a3e
00000180: 11d6 913b 245f e9bd ad5b e83d 5393 c1bd
00000190: 9da7 ca3c 66ed 83be 5b79 02be 4918 72be
000001a0: 7de8 dfba b7c6 fa3d 36ab bb3d 284e ae3d
000001b0: 8520 6f3e b3d6 2d3e 66a5 89be c8e1 fc3d
000001c0: 7cb6 bbbd 59a6 79be 9133 013e 4aac b6bc
000001d0: 30af c6bc d664 953c 5c07 533e 85a6 573c
000001e0: 8797 a4bd 8241 47bd 766d 92be 2def 473e
000001f0: fa94 033e d048 0dbe e6e7 423e c6b1 82bd
00000200: c15c 3ebe 9442 3f3e 6dfa e63d e7f8 26be
00000210: d8a0 c5bc 34e5 10be b78c 5ebe 8e72 9c3d
00000220: 4867 543c 8262 6ebe b87c aabd b261 c5b9
00000230: b961 483e ccac 55be a810 5cbe ce55 52be
00000240: 8682 393d 27f1 65be de51 403e 3ae2 f9bd
00000250: 2e6d 0abd e022 6dbe 395d 94bd dfe3 313d
00000260: 3473 34bd 0e5c 81be 38db 6ebe 2745 463e
00000270: 56d4 abbd 6992 acbd 012e 613d 0af8 753e
00000280: 3159 7b3e 8e56 6a3d 159c 7bbc 9693 80bd
00000290: fe8e 56be 5c8c 72be 8991 39be 67ff e13c
000002a0: 5e4e 843e d155 0abe 40fb 69be c331 1b3e
000002b0: e90f dd3d 0086 633e e55f 66be ae40 96bd
000002c0: 2acb 4cbe 71f1 0bbe 4f16 093d f7d5 59be
000002d0: 0b8d ed3d 5dc3 cdbd 4fad f43c 17d6 8b3e
000002e0: 3b18 62bd f7e5 7b3e ce68 5ebe b70e a5bd
000002f0: a245 49be 67f1 093e 1aa9 c0bd f777 cdbd
00000300: 651a 253e 485c 903e db8a 2bbe 512e 29be
00000310: 081d cfbd c2de f2bd ade9 5c3e 7fe2 c5bd
00000320: 0bbb 8a3e bf75 85be 4587 d7bc eed8 ee3d
00000330: 2a65 8ebe db69 9b3d 354b 87be 4eab 283e
00000340: 854e 01be fbe2 673e ec0c 1b3e 0df1 793e
00000350: 7e95 1b3e 2bf8 49bd 24ae 1f3e e9c7 873e
00000360: 7680 963d e58c 1d3d e3f5 22be 5d5f f43c
00000370: 01de 353e 6ec1 c9bd 51a5 453d 6d68 463e
00000380: 8c5d b03d bf11 d7bd 7d28 fd3d 2d8a 61be
00000390: 8599 dfbd d440 043d b8fe 193e e366 0bbc
000003a0: b47d 82be 48fb 233c 29f9 6cbe 0f32 7fbe
000003b0: 876c 78be 2445 823d 3429 8b3e da62 133c
000003c0: f90d 3a3e 3fcf 8f3c fe89 12be 0b41 873e
000003d0: 1678 47be a3ea 2fbe 7dc8 03bd d28c 5b3e
000003e0: 81e3 70bc d2f8 303c c877 7cbe 2f90 3b3e
000003f0: 7b4b 31be 338f 2cbd a4d9 09be f32c 233d

gcn3.bias f4 [1, 12]
-0.014763142 -0.09986923 -0.21496253 -0.20088601 -0.07903368 0.19009212 0.049419094 0.15082161
-0.22530267 0.2547412 0.04469601 0.10411225
00000000: 1be1 71bc 3d88 ccbd 231f 5cbe 10b5 4dbe
00000010: 69dc a1bd 82a7 423e ad6b 4a3d fb70 1a3e
00000020: beb5 66be 706d 823e 2a13 373d ce38 d53d

fc1.weight f4 [12, 1224]
-0.005037062 -0.015288811 -0.018392585 0.016346062 0.021168128 -0.012486362 -0.01888342 0.019510599
-0.025826398 0.014842947 -0.02201532 -0.022739086 0.023077348 -0.012978877 -0.008544507 0.0048245406
0.0051105656 0.011208867 0.01755441 0.025572587 -0.010139266 0.0004909067 -0.0039973436 0.018556518
-0.0024056789 -0.005604975 0.0021727374 -0.026636522 -0.0076992884 0.011961428 0.000193416 -0.015775332
-0.027769908 -0.01946955 -0.012345668 -0.012070652 -0.025352433 -0.005458148 -0.000115060095 -0.026305206
0.023122415 -0.002093509 0.013500831 0.021559253 -0.0041235387 -0.017833095 -0.0039327433 -0.028149756
-0.015405307 0.023220303 -0.020272875 -0.02339612 -0.019212525 -0.008905576 0.005294642 0.00045639346
0.005525563 -0.0014627434 0.017804347 0.011694945 0.010733395 0.018818729 0.021828571 -0.016688986
-0.0074457494 -0.026601784 0.009520787 -0.018134952 0.0051507317 0.004655583 0.016220499 0.027307028
0.024042755 0.01850354 0.026159234 -0.014968505 -0.0029402645 0.0030787538 0.012921663 -0.022036782
-0.012169749 -0.0019592824 -0.009603658 -0.018142853 -0.008644173 0.023072302 0.017972253 0.010382808
0.017063305 0.017716467 0.003986617 0.015881157 -0.009309506 0.005224164 -0.0034677493 -0.01761072
-0.01976835 0.015910728 -0.026016261 -0.020668512 -0.02758439 -0.0078094928 -0.00657273 0.025599819
-0.009209905 -0.016140388 0.007974627 0.00031491602 -0.0033525361 -0.011827032 0.012339998 0.014413802
0.028322529 0.004515008 -0.01888047 0.0046214475 0.021615209 0.027278855 -0.009737125 0.019878969
0.0061571943 -0.028146436 -0.024119113 0.019298293 0.005338549 -0.002553552 0.017586198 0.009436611
0.0011717948 -0.022471823 -0.0066834046 0.016081765 -0.005623825 -0.02588693 -0.021794971 -0.024185931
0.015613313 -0.016297067 0.0059927204 0.016738508 0.002391235 -0.015399667 -0.020375008 -0.02580472
-0.012574548 -0.011890988 0.010334797 0.019616418 0.010181384 0.007323578 -0.0013522697 -0.010610201
-0.011014109 0.023667226 0.026809426 0.006952045 -0.0012504268 -0.0011093377 -0.0033918093 0.014138633
0.018570958 0.02391222 0.026822882 0.0018412342 -0.014207632 0.021350145 -0.010281227 -0.0062139337
0.027270885 0.026164863 0.0052432693 -0.009806723 -0.013724645 -0.027019123 0.023715489 -0.0005722168
0.018405875 -0.01359618 0.015251811 -0.022615412 -0.00059049396 0.018653324 -0.0075994115 0.025706705
0.016938718 -0.0077953897 0.0044245017 0.0155227175 -0.026062932 -0.0058687497 0.013770841 -0.012463042
-0.019562125 -0.025819683 -0.008014283 -0.012688916 0.022286702 0.01445068 0.0052987617 0.001017952
-0.023874324 0.0029077276 0.01910296 0.0056773713 0.025103586 0.024173474 -0.026211064 -0.013672471
0.006041677 0.012619488 0.01980864 0.016722627 -0.0017318609 0.008970936 -0.02092281 -0.017891293
0.011948249 -0.019511018 -0.02568829 0.009265295 0.0083249705 -0.022713268 -0.01334292 -0.013740305
-0.0018347533 0.023988463 -0.00048346163 0.002220495 -0.013246167 0.025128447 -0.025885731 -0.004986885
0.0024355683 0.022845985 -0.024906449 0.019313417 -0.021219065 0.021014921 -0.012792002 -0.011389828
0.02010645 -0.0020413185 0.015329788 -0.010091103 -0.02450074 -0.024102852 0.020897578 -0.024240179
-0.0012470364 0.026127903 -0.026958529 0.024639366 0.012381759 -0.014158222 0.026682364 -0.027938506
00000000: f00d a5bb ec7d 7abc 0cac 96bc 2de8 853c
00000010: c868 ad3c 9993 4cbc 67b1 9abc b1d4 9f3c
00000020: e291 d3bc d52f 733c 7959 b4bc 5247 babc
00000030: b50c bd3c 5ba5 54bc 43fe 0bbc 2e17 9e3b
00000040: 8876 a73b 65a5 373c 44ce 8f3c 9a7d d13c
00000050: 2a1f 26bc 31b0 003a 26fc 82bb d703 983c
00000060: 98a8 1dbb f0a9 b7bb 7c64 0e3b d634 dabc
00000070: 504a fcbb def9 433c b6cf 4a39 453b 81bc
00000080: b87d e3bc 9b7e 9fbc 7c45 4abc fcc3 45bc
00000090: e8af cfbc 44da b2bb 6b4c f1b8 047e d7bc
000000a0: 386b bd3c 4133 09bb 9732 5d3c 089d b03c
000000b0: c01e 87bb b616 92bc 3ede 80bb 519a e6bc
000000c0: 8a66 7cbc 8138 be3c 4d13 a6bc 38a9 bfbc
000000d0: 9663 9dbc b1e8 11bc ad7e ad3b 1848 ef39
000000e0: c80f b53b 86b9 bfba 6cda 913c 289c 3f3c
000000f0: 1fdb 2f3c bc29 9a3c d5d1 b23c 57b7 88bc
00000100: 79fb f3bb fceb d9bc 13fd 1b3c c08f 94bc
00000110: 78c7 a83b dc8d 983b dae0 843c fdb2 df3c
00000120: 50f5 c43c bc94 973c e44b d63c 763e 75bc
00000130: 74b1 40bb ebc4 493b 62b5 533c 7b86 b4bc
00000140: a063 47bc 4e67 00bb a958 1dbc 52a0 94bc
00000150: 4aa0 0dbc 2002 bd3c 8c3a 933c a71c 2a3c
00000160: 58c8 8b3c 2022 913c 2ba2 823b 3319 823c
00000170: e686 18bc 772f ab3b 2e43 63bb 5b44 90bc
00000180: 3cf1 a1bc 3757 823c 0e20 d5bc 0351 a9bc
00000190: a9f8 e1bc c6e6 ffbb 0e60 d7bb b6b6 d13c
000001a0: 24e5 16bc d938 84bc 03a8 023c 501b a539
000001b0: 39b6 5bbb 2bc6 41bc b42d 4a3c de27 6c3c
000001c0: a604 e83c a2f2 933b 37ab 9abc 836f 973b
000001d0: 6112 b13c e877 df3c 7688 1fbc 38d9 a23c
000001e0: 4ac2 c93b 5b93 e6bc 7295 c5bc 7417 9e3c
000001f0: ffee ae3b 7e59 27bb ee10 903c 049c 1a3c
00000200: e996 993a d416 b8bc 7600 dbbb e8bd 833c
00000210: 1048 b8bb d410 d4bc 5e8b b2bc 9321 c6bc
00000220: fbce 7f3c 6d81 85bc 955e c43b 321f 893c
00000230: 44b6 1c3b e34e 7cbc 7de9 a6bc 6c64 d3bc
00000240: 7a05 4ebc 6bd2 42bc 4853 293c 9cb2 a03c
00000250: d2cf 263c a0fa ef3b a43e b1ba 69d6 2dbc
00000260: 8574 34bc c5e1 c13c 719f db3c fbcd e33b
00000270: 5ce5 a3ba 3267 91ba 1e49 5ebb baa5 673c
00000280: 1f22 983c 8fe3 c33c a9bb db3c 9155 f13a
00000290: 21c7 68bc 80e6 ae3c 9772 28bc 419e cbbb
000002a0: 3167 df3c b257 d63c bbcf ab3b 61ac 20bc
000002b0: 55dd 60bc 3557 ddbc fc46 c23c d200 16ba
000002c0: ebc7 963c 83c2 5ebc bbe2 793c f543 b9bc
000002d0: 61cb 1aba dbce 983c 7c04 f9bb de96 d23c
000002e0: 11c3 8a3c 7870 ffbb 69fb 903b ff52 7e3c
000002f0: ee81 d5bc a44e c0bb 189f 613c c931 4cbc
00000300: c040 a0bc cd83 d3bc 574e 03bc 2ce5 4fbc
00000310: 9a92 b63c 8cc2 6c3c 3ca1 ad3b cd6c 853a
00000320: 1694 c3bc 938f 3e3b d07d 9c3c 3e09 ba3b
00000330: 09a6 cd3c 7307 c63c 96b8 d6bc 8002 60bc
00000340: 43f9 c53b f8c1 4e3c bb45 a23c e4fd 883c
00000350: 9cff e2ba d5fa 123c 5066 abbc c390 92bc
00000360: 97c2 433c 92d5 9fbc 4070 d2bc 77cd 173c
00000370: 7565 083c 2d11 babc 439c 5abc 041f 61bc
00000380: 1b7c f0ba 7483 c43c 1f79 fdb9 b985 113b
00000390: 7406 59bc 2cda cd3c 500e d4bc 0669 a3bb
000003a0: 0e9e 1f3b 8127 bb3c 9c08 ccbc 2c37 9e3c
000003b0: 9bd3 adbc 7c27 ac3c 8c95 51bc 679c 3abc
000003c0: 48b6 a43c a4c7 05bb cb29 7b3c 2755 25bc
000003d0: c7b5 c8bc 5873 c5bc 6631 ab3c 5793 c6bc
000003e0: 9973 a3ba 2f0a d63c 22d8 dcbc 7fd8 c93c
000003f0: dcdc 4a3c e3f7 67bc f994 da3c 4bdf e4bc

fc1.bias f4 [12]
-0.016843949 -0.01606368 -0.018350253 -0.00046105817 0.012851972 -0.018521547 -0.02383134 0.022876808
0.02702695 -0.009047343 0.002348728 -0.0019935607
00000000: 52fc 89bc fb97 83bc 4553 96bc 2eba f1b9
00000010: 1491 523c 80ba 97bc f139 c3bc 2568 bb3c
00000020: 9f67 dd3c 4f3b 14bc 1eed 193b 66a6 02bb

fc2.weight f4 [12, 12]
0.26275918 -0.19331408 -0.112539865 0.13384044 0.08371241 0.22433704 0.0114342235 -0.11187044
0.105930865 -0.02149906 0.15857057 0.23767512 0.020732379 0.19907281 0.046692673 0.20803396
0.067456745 0.0088641755 0.22638749 0.023488153 0.034532033 -0.22655708 0.1363379 -0.041767243
-0.254084 0.07024022 -0.2398125 0.03004595 0.07744498 0.086071156 0.18654753 0.17094544
0.07838269 -0.16405962 -0.00045259658 0.12252556 -0.08618145 -0.12334131 -0.07910213 0.13148075
0.09333586 0.2604359 -0.1789196 -0.010446543 0.24098118 0.04026857 0.1324685 0.20957153
0.27642143 -0.14967446 0.2764699 -0.048584446 0.09488272 0.05844883 -0.12253519 -0.026533784
0.034231678 0.10129729 -0.028550027 0.05300979 -0.11946898 -0.2867269 -0.14432742 0.09378705
-0.025882317 0.058788173 0.24280596 -0.18697786 -0.21267156 -0.2774836 -0.26450503 0.122010946
-0.16953118 -0.057472814 0.01834255 -0.08684858 0.23739919 0.10213861 -0.08935582 0.20938154
0.07842072 -0.2192129 -0.119370215 0.11951857 0.13387905 -0.12817912 0.22644906 0.09624959
-0.22075894 -0.28007197 0.1617158 0.077296905 0.2820626 -0.016150491 0.25094566 0.2795139
0.04332291 -0.25931668 0.10763347 0.2768004 -0.18054935 0.043613456 -0.21006651 -0.013205826
-0.11179308 -0.11678261 0.2416492 -0.07036652 0.21153216 0.045074344 0.19674234 -0.09996324
-0.1880108 0.08417663 0.058436852 0.048526667 0.19554657 -0.11695667 0.081502005 0.24212793
0.064802594 0.20692539 0.016418912 0.052605543 -0.06806936 -0.18975514 -0.025121244 -0.1468434
0.16794185 0.026116943 -0.21474421 0.07112181 0.008234044 0.27570617 -0.19592287 0.22025052
0.19935754 0.021852376 0.046201296 0.21608779 -0.25891256 0.19311105 -0.23275647 -0.0700195
00000000: 5f88 863e 20f4 45be 4d7b e6bd 780d 093e
00000010: 6971 ab3d 9cb8 653e 9c56 3b3c 541c e5bd
00000020: 48f2 d83d cc1e b0bc 5360 223e 1b61 733e
00000030: f3d6 a93c bed9 4b3e d140 3f3d db06 553e
00000040: c326 8a3d 0c3b 113c 1fd2 673e 3a6a c03c
00000050: 7671 0d3d 94fe 67be 2a9c 0b3e 2114 2bbd
00000060: 4c17 82be 1bda 8f3d 6891 75be ed22 f63c
00000070: 799b 9e3d 1346 b03d 5106 3f3e 520c 2f3e
00000080: 1b87 a03d 3fff 27be 7c4a edb9 aeee fa3d
00000090: e67f b0bd 5e9a fcbd 4c00 a2bd e4a2 063e
000000a0: df26 bf3d db57 853e b336 37be fa27 2bbc
000000b0: c5c3 763e a8f0 243d d3a5 073e eb99 563e
000000c0: 1c87 8d3e 4344 19be 768d 8d3e 7c00 47bd
000000d0: df51 c23d 0a68 6f3d bbf3 fabd 615d d9bc
000000e0: 8436 0c3d f474 cf3d bfe1 e9bc cb20 593d
000000f0: 27ac f4bd decd 92be 91ca 13be 6d13 c03d
00000100: 2707 d4bc decb 703d 20a2 783e 2077 3fbe
00000110: 93c6 59be 5512 8ebe 346d 87be e0e0 f93d
00000120: 9599 2dbe 9d68 6bbd 1e43 963c abdd b1bd
00000130: c618 733e 0c2e d13d 2f00 b7bd 1d68 563e
00000140: 0b9b a03d 5979 60be 5f78 f4bd 27c6 f43d
00000150: 9717 093e 6341 03be 43e2 673e 811e c53d
00000160: a20e 62be 9865 8fbe d498 253e d74d 9e3d
00000170: 826a 903e 094e 84bc f37b 803e 721c 8f3e
00000180: 5d73 313d 28c5 84be f06e dc3d c8b8 8d3e
00000190: eee1 38be 06a4 323d ad1b 57be 405d 58bc
000001a0: c5f3 e4bd b92b efbd e372 773e 521c 90bd
000001b0: e39b 583e e09f 383d d376 493e 87b9 ccbd
000001c0: e785 40be cc64 ac3d 7b5b 6f3d e6c3 463d
000001d0: 5c3d 483e fb86 efbd 86ea a63d 62f0 773e
000001e0: 39b7 843d 40e4 533e f480 863c e978 573d
000001f0: f367 8bbd 2c4f 42be 11cb cdbc 1e5e 16be
00000200: f3f8 2b3e 33f3 d53c e8e5 5bbe 50a8 913d
00000210: 15e8 063c 5c29 8d3e 01a0 48be 5a89 613e
00000220: 6224 4c3e c103 b33c 923d 3d3d 1e46 5d3e
00000230: 3090 84be e7be 453e b657 6ebe 6266 8fbd

fc2.bias f4 [12]
-0.19424659 0.22272074 0.045298614 0.20555009 -0.14313239 0.13476668 0.028701236 -0.04132394
0.24225965 -0.019007405 -0.06941143 0.09381127
00000000: 94e8 46be e810 643e 0a8b 393d b97b 523e
00000010: 4c91 12be 4700 0a3e db1e eb3c 4b43 29bd
00000020: ea12 783e 6bb5 9bbc 9427 8ebd 2020 c03d

fc3.weight f4 [6, 24]
-0.10451341 -0.17650996 -0.03126567 -0.14402585 -0.028411424 -0.19970879 0.14467525 0.11920356
0.15857194 0.029632041 -0.05643395 -0.12996094 -0.06103045 -0.0035033906 -0.1578074 -0.025530217
-0.099363446 0.18199378 -0.103888035 0.08984751 -0.06293929 0.105153844 0.0018913939 -0.10131747
-0.119096085 0.13896601 -0.19996962 -0.029878441 0.10417525 -0.103724174 0.17933339 -0.13893929
-0.06918911 0.08287774 -0.13566306 -0.09437454 0.15742417 0.1346599 0.06762162 -0.06363849
-0.043399107 0.03776505 0.12421113 -0.07636213 0.15488921 0.026387826 -0.14420317 0.17611012
-0.007568788 0.17671897 0.18054259 -0.090901494 -0.17387244 -0.1325467 0.10432575 0.033867896
-0.019501349 0.1397674 -0.004301067 0.17364821 -0.18942663 0.06513566 -0.013564245 -0.09155626
0.09547974 0.104457684 -0.11115222 0.005573271 0.0850108 0.032175645 0.028353 0.13165511
0.023446564 -0.013270198 0.10305792 -0.016991058 -0.09878525 -0.037226185 -0.023914473 0.14784886
-0.1488826 0.10265958 0.011342986 0.0055917883 -0.15583146 -0.14101104 0.17474113 -0.1547167
-0.11636949 -0.18617265 -0.18758301 0.053060867 -0.1496446 0.04147912 0.116469674 -0.12518187
-0.030995447 0.17783724 0.17327373 0.018833226 -0.16768025 -0.07164922 -0.18858896 -0.031698927
0.085007414 0.12520844 0.11294696 -0.15579177 0.19628276 -0.05070981 -0.097005725 0.08992869
0.043573137 0.14204298 0.15126815 0.12247581 0.118392505 -0.17651592 0.04172754 -0.20091406
-0.0812098 -0.10968552 0.15157828 0.086653404 -0.1208718 0.14915797 0.08189679 -0.076398075
0.03437269 0.19397897 0.17109905 0.1471762 -0.027985856 0.15213121 0.05273514 -0.015314139
0.02440377 0.15252286 -0.016902776 0.0084066875 0.033286057 -0.01417813 -0.16847277 0.17613533
00000000: 200b d6bd 07bf 34be 6e10 00bd 837b 13be
00000010: 13bf e8bc 7680 4cbe c025 143e ff20 f43d
00000020: af60 223e e5be f23c 4927 67bd 7b14 05be
00000030: 11fb 79bd 2499 65bb 4398 21be bf24 d1bc
00000040: 107f cbbd 945c 3a3e 40c3 d4bd f901 b83d
00000050: 51e6 80bd e65a d73d a6e8 f73a 897f cfbd
00000060: a6e8 f3bd 1b4d 0e3e d6c4 4cbe a2c3 f4bc
00000070: d559 d53d 576d d4bd 2ca3 373e 1a46 0ebe
00000080: 05b3 8dbd cebb a93d 42eb 0abe 7047 c1bd
00000090: cd33 213e 49e4 093e 347d 8a3d e654 82bd
000000a0: 43c3 31bd 86af 1a3d 6862 fe3d c063 9cbd
000000b0: 479b 1e3e 482b d83c ffa9 13be 3656 343e
000000c0: 9803 f8bb d1f5 343e 28e0 383e 902a babd
000000d0: 9e0b 32be 52ba 07be bda8 d53d 10b9 0a3d
000000e0: 4bc1 9fbc 2f1f 0f3e f7ef 8cbb d6d0 313e
000000f0: 0ef9 41be d865 853d 913c 5ebc d981 bbbd
00000100: e28a c33d e9ed d53d c6a3 e3bd fc9f b63b
00000110: 241a ae3d 9cca 033d 8d44 e83c 99d0 063e
00000120: 0213 c03c 3f6b 59bc 0810 d33d d530 8bbc
00000130: ec4f cabd 7c7a 18bd 49e8 c3bc b165 173e
00000140: ae74 18be 303f d23d eed7 393c 523b b73b
00000150: 4892 1fbe 3365 10be 57ef 323e 0e6e 1ebe
00000160: 2153 eebd 0ba4 3ebe c315 40be 5a56 593d
00000170: 6f3c 19be 02e6 293d a787 ee3d ad2f 00be
00000180: 2aea fdbc f71a 363e ab6e 313e 2348 9a3c
00000190: 5fb4 2bbe d4bc 92bd 771d 41be bcd6 01bd
000001a0: 5e18 ae3d a436 003e bc50 e73d e187 1fbe
000001b0: 59fe 483e 17b5 4fbd f0aa c6bd 882c b83d
000001c0: bf79 323d b773 113e 0ae6 1a3e 99d4 fa3d
000001d0: c577 f23d 97c0 34be 7fea 2a3d 6abc 4dbe
000001e0: 5351 a6bd cda2 e0bd 5637 1b3e 5777 b13d
000001f0: a28b f7bd debc 183e 81b9 a73d 9876 9cbd
00000200: 61ca 0c3d 6ca2 463e 9734 2f3e 5cb5 163e
00000210: 9842 e5bc 49c8 1b3e cd00 583d 28e8 7abc
00000220: 6aea c73c f42e 1c3e b177 8abc 34bc 093c
00000230: f656 083d 634b 68bc 2084 2cbe d25c 343e

fc3.bias f4 [6]
0.1771905 -0.071557336 0.09796519 0.060703795 0.005134562 -0.017402269
00000000: 6d71 353e a78c 92bd f9a1 c83d 8ba4 783d
00000010: d43f a83b 348f 8ebc
