dicewars/ai/xklemr00/model.pth (torch, 68353 bytes, 12 tensors)

gcn1.weight f4 [34, 12]
0	0x3e794581	0.2434292
1	0x3e4c4c21	0.19950916
2	0x3e87962b	0.26481757
3	0xbde6680d	-0.11250315
4	0x3e4a14a4	0.19734436
5	0xbe90999c	-0.28242195
6	0xbe196c0e	-0.14982626
7	0x3e4ba047	0.1988536
8	0x3e7d8b42	0.24760154
9	0xbe23c65b	-0.15993635
10	0xbe779238	-0.24176872
11	0x3e1d723d	0.1537561
12	0x3e9129aa	0.283521
13	0x3e23705e	0.15960833
14	0x3e5374c0	0.20650005
15	0xbe733a2e	-0.23752663
16	0x3e70544b	0.23469655
17	0xbbe2ebd4	-0.0069250856
18	0x3e68aa65	0.2272125
19	0x3e67d4e0	0.22639799
20	0x3e221d03	0.1583138
21	0x3cf58144	0.029968865
22	0xbdbc98a5	-0.09208802
23	0x3e5ee4b8	0.21766937
24	0x3dd4fd16	0.10399835
25	0xbe3c671c	-0.18398708
26	0x3cc7403f	0.024322627
27	0x3e7137ff	0.23556517
28	0xbe084711	-0.1330836
29	0x3e8aa186	0.27076358
30	0xbd50a62c	-0.050939724
31	0x3c8c9a1c	0.017163329
32	0x3db7bff0	0.08972156
33	0xbd812429	-0.06305725
34	0x3d817b4d	0.06322346
35	0x3e1db2dd	0.15400262
36	0xbe149623	-0.14510398
37	0x3cc12717	0.02357821
38	0x3e905545	0.28190055
39	0x3d86efee	0.06588732
40	0x3d0dbf2f	0.034606155
41	0xbe1bfe8d	-0.15233822
42	0xbdeff46d	-0.117165424
43	0xbe513ff7	-0.20434557
44	0x3e3e9da5	0.18614824
45	0xbe71c917	-0.23611866
46	0x3dcef406	0.101051375
47	0xbe1123fd	-0.14173885
48	0x3d3d8d88	0.046277553
49	0xbe8deffc	-0.27722156
50	0x3e152c5f	0.14567707
51	0x3e3e91f4	0.18610364
52	0x3e405a93	0.18784551
53	0x3e4f1bc7	0.2022544
54	0xbce7e33a	-0.028306592
55	0x3e6a1bb8	0.22862136
56	0xbd18ed5d	-0.037335742
57	0x3d31fc8e	0.043453746
58	0x3db1f6ed	0.086896755
59	0xbd3178eb	-0.043328207
60	0xbe66f395	-0.22553857
61	0xbcbe9bc4	-0.023267634
62	0xbe92603d	-0.2858905
63	0x3df20989	0.11818225
64	0x3daa4c35	0.083153166
65	0x3e5455a7	0.20735799
66	0xbe496aa3	-0.19669585
67	0xbe2c447c	-0.16823
68	0x3e53510d	0.20636387
69	0xbe832486	-0.25613803
70	0x3e5c0acb	0.21488492
71	0x3d25c7c1	0.040473703
72	0x3dd554dc	0.10416576
73	0x3c7924c0	0.015206516
74	0xbd632382	-0.055453785
75	0x3daebf5a	0.08532591
76	0xbe30b078	-0.17254817
77	0xbd879cfe	-0.06621741
78	0x3e32dc00	0.17466736
79	0x3e3bf754	0.18356067
80	0xbe07d951	-0.13266493
81	0x3e13a88c	0.14419764
82	0xbe899088	-0.2686808
83	0x3e68ea48	0.22745621
84	0x3e2451c2	0.16046813
85	0x3e8714f2	0.26383168
86	0xbe371151	-0.178777
87	0x3e443886	0.19162187
88	0xbe693f7f	-0.22778128
89	0xbe2b667c	-0.16738313
90	0xbe903528	-0.28165555
91	0xbe69adc5	-0.22820194
92	0x3e042fca	0.12908855
93	0x3e8edd91	0.27903417
94	0x3e0ea41b	0.13929789
95	0x3e074bdd	0.13212533
96	0xbd1fed22	-0.039044507
97	0x3e2f4860	0.17117453
98	0x3e03a17d	0.12854572
99	0x3d6c081b	0.057624917
100	0xbda17842	-0.078842655
101	0x3d918849	0.071060725
102	0x3e0cd2f8	0.13752353
103	0xbdeb9d22	-0.1150458
104	0x3d9f1791	0.07768167
105	0x3df2a4f4	0.118478686
106	0x3e0fa4bd	0.14027686
107	0x3d7b45e0	0.061345935
108	0x3e394f01	0.18096544
109	0xbd8705be	-0.06592892
110	0xbc6e3406	-0.014538771
111	0x3b7e545e	0.003880761
112	0xbe4119ab	-0.18857448
113	0xbe4a00a2	-0.19726804
114	0x3d838ad7	0.06422966
115	0xbc91f370	-0.017816275
116	0xbd90fb8f	-0.07079231
117	0x3e726f20	0.23675203
118	0xbcbaafe6	-0.022788953
119	0x3e232562	0.15932229
120	0x3e0595e9	0.13045467
121	0x3e206737	0.15664373
122	0xbe82030c	-0.2539295
123	0x3d5acb46	0.053416513
124	0x3de31770	0.11088455
125	0x3e5f96af	0.21834825
126	0xbd70f616	-0.058828436
127	0x3d6b12d7	0.057391014
128	0xbe56484e	-0.2092602
129	0xbdff45b7	-0.12464469
130	0xbe4e7aa5	-0.20163973
131	0x3daa5162	0.08316304
132	0xbcacb7cb	-0.021083733
133	0x3c769292	0.0150495935
134	0xbe582abe	-0.21110055
135	0xbdbf96b7	-0.093549185
136	0x3e84e6e3	0.25957403
137	0xbe5d040c	-0.21583575
138	0x3e0d24f1	0.13783623
139	0xbe7c8868	-0.2466141
140	0x3e74ddb5	0.239127
141	0xbe7d0d22	-0.24712041
142	0x3e06ce01	0.13164522
143	0xbe37c588	-0.17946446
144	0xbdce788b	-0.100815855
145	0x3e3ad0dd	0.18243738
146	0x3e90fb31	0.28316644
147	0x3e0504d2	0.1299012
148	0x3b79bfc5	0.0038108688
149	0xbce6a720	-0.028155863
150	0xbe431225	-0.1904989
151	0xbe593b55	-0.2121404
152	0xbe7074f1	-0.2348211
153	0x3cc13fb3	0.023589944
154	0x3e281e85	0.16417892
155	0x3d321132	0.04347343
156	0xbe871f96	-0.26391286
157	0xbdc9af07	-0.09847837
158	0x3e833c80	0.25632095
159	0xbe074a40	-0.13211918
160	0xbcf6262c	-0.030047499
161	0x3e668d8b	0.22514932
162	0xbe8b7afc	-0.27242267
163	0x3d769f4f	0.060210522
164	0xbe8b4b08	-0.27205682
165	0x3e75c7b4	0.24001962
166	0xbd5cdc58	-0.053921074
167	0xbe90bab1	-0.28267434
168	0xbe429ac3	-0.1900435
169	0xbe21a38b	-0.15785043
170	0xbc23ca35	-0.00999694
171	0xbd87c638	-0.06629604
172	0xbd75a460	-0.059971213
173	0xbdf99aa3	-0.12187698
174	0xbe6b717b	-0.22992508
175	0xbd879357	-0.066199
176	0x3dc791c7	0.09744602
177	0xbde25ad3	-0.110524796
178	0x3cdc0ab2	0.026860569
179	0xbe4499d3	-0.19199304
180	0xbcab1a44	-0.020886548
181	0xbe55f7bf	-0.20895289
182	0x3d87793b	0.0661492
183	0x3ba58aaa	0.0050519304
184	0xbe22e068	-0.15905917
185	0xbe58ae9b	-0.21160357
186	0x3e4212c4	0.18952471
187	0xbe8449e4	-0.25837624
188	0xbe7c5af3	-0.2464407
189	0x3e8eed5c	0.27915466
190	0xbe4d6c1c	-0.20060772
191	0x3e70a109	0.2349893
192	0xbd9ec1e3	-0.07751825
193	0x3e74067b	0.23830597
194	0xbe49b529	-0.19698013
195	0xbe54e880	-0.20791817
196	0x3e920eca	0.28526908
197	0xbe625560	-0.2210288
198	0x3e118ddf	0.14214276
199	0xbe813c94	-0.2524153
200	0x3e7d6021	0.24743702
201	0x3d3493b7	0.044086184
202	0x3e827e84	0.2548715
203	0xbe931444	-0.287264
204	0xbddbb089	-0.10727031
205	0x3e436616	0.19081911
206	0xbda21a06	-0.0791512
207	0x3e6e2cc7	0.23259269
208	0xbe885d26	-0.26633567
209	0xbe3d6adf	-0.184978
210	0x3d5ac3e1	0.05340946
211	0x3d8df112	0.06930746
212	0xbc09e410	-0.008416191
213	0xbdbb1b7c	-0.091361016
214	0x3dcd94e7	0.100381665
215	0xbe46ff49	-0.19433321
216	0xbc355cc7	-0.011069483
217	0x3e8cde87	0.27513525
218	0xbd90f003	-0.070770286
219	0x3ceed2a6	0.02915318
220	0xbda5e18e	-0.08099662
221	0x3db0ec48	0.08638817
222	0x3e2f7d24	0.17137581
223	0xbe32f51b	-0.17476313
224	0x3b78a0d3	0.0037937656
225	0x3e855313	0.26039943
226	0x3e91a253	0.28444156
227	0xbcccbe18	-0.024992988
228	0xbd6d2716	-0.057898603
229	0xbe60e51d	-0.219624
230	0x3e3a3be6	0.18186912
231	0x3e82c95c	0.2554425
232	0x3e740357	0.23829399
233	0xbe565bf4	-0.20933515
234	0x3e715131	0.23566128
235	0xbe1b6503	-0.15175252
236	0x3c7ca96a	0.015421251
237	0x3e5ef79e	0.21774146
238	0xbe4d4f3e	-0.2004976
239	0x3dd08bfa	0.101829484
240	0x3dc6e78d	0.097121336
241	0x3dfa6990	0.12227166
242	0x3d67136a	0.056415
243	0xbe2f9b4a	-0.17149082
244	0x3e8a11d0	0.26966715
245	0xbe2c7409	-0.16841139
246	0xbd7394a4	-0.059467927
247	0xbb6857c7	-0.003545271
248	0x3d977df4	0.073970705
249	0x3e908259	0.28224447
250	0xbd03315e	-0.032029502
251	0xbe243c2c	-0.16038579
252	0x3e52d587	0.20589267
253	0x3dcd34eb	0.10019859
254	0x3cbaeed5	0.022818962
255	0x3d6584f9	0.056035016

gcn1.bias f4 [1, 12]
0	0x3e170ff5	0.14752181
1	0xbdc357e1	-0.09538246
2	0xbceb41ee	-0.028717961
3	0xbe364e41	-0.17803289
4	0x3dcd07c3	0.10011246
5	0x3e3ab5c6	0.18233404
6	0xbe894fa2	-0.26818568
7	0xbdfee1a8	-0.12445384
8	0x3e316260	0.17322683
9	0xbe877461	-0.26455978
10	0x3d018007	0.031616237
11	0x3e37fff3	0.1796873

gcn2.weight f4 [34, 12]
0	0x3e5109d6	0.20413908
1	0x3d3f5b16	0.046717726
2	0x3e8fae6e	0.28062767
3	0x3dff957b	0.12479683
4	0xbe0bbfba	-0.13647357
5	0xbb5d6147	-0.0033779906
6	0xbe560735	-0.20901187
7	0xbe8935a6	-0.26798743
8	0x3dcf28f1	0.10115231
9	0xbdbb538f	-0.09146797
10	0xbcd017bf	-0.025401948
11	0xbd191ffd	-0.037384022
12	0x3c3c7bc2	0.011504116
13	0xbd257896	-0.040398203
14	0xbe479c7d	-0.1949329
15	0x3e62a680	0.22133827
16	0x3e28c5ef	0.16481756
17	0xbe7560fb	-0.23962776
18	0xbd171fcf	-0.03689557
19	0xbe4555bc	-0.19270986
20	0x3c327b80	0.0108937025
21	0xbc3d6f1d	-0.011562136
22	0x3dd98058	0.10620183
23	0x3e55c983	0.20877652
24	0xbe5f0bdc	-0.21781868
25	0x3d771b14	0.060328558
26	0xbd30fc64	-0.04320945
27	0x3e082330	0.13294673
28	0x3d964f83	0.073393844
29	0x3e4eb1bc	0.20184988
30	0x3df27745	0.11839155
31	0x3e4482c2	0.19190505
32	0xbe876c10	-0.26449633
33	0xbd0e4693	-0.034735274
34	0x3e8eb448	0.2787192
35	0x3e208742	0.15676597
36	0xbe20ba52	-0.15696076
37	0x3e7be68d	0.24599667
38	0x3d2d73c1	0.04234672
39	0xbe174887	-0.1477376
40	0xbe8f479c	-0.2798432
41	0xbe2aeaa5	-0.16691072
42	0x3ce04f2f	0.027381508
43	0x3e8b2f62	0.27184588
44	0xbdb2f896	-0.0873882
45	0xbe8ff16f	-0.28113887
46	0x3e52d933	0.20590667
47	0x3e523d0b	0.20531099
48	0x3c8a1c35	0.016859153
49	0xbd5d2c2a	-0.053997196
50	0x3db76dd8	0.08956498
51	0xbd4802d0	-0.048830807
52	0xbcb854ee	-0.022501435
53	0xbe395f49	-0.18102755
54	0x3dfa91ac	0.12234816
55	0x3e4c8741	0.1997347
56	0xbe763dfb	-0.24047081
57	0x3e315ffe	0.17321774
58	0x3dfa6815	0.12226883
59	0x3dbce5a1	0.09223486
60	0x3e837189	0.25672558
61	0xbe0fe225	-0.14051111
62	0x3e6d1e23	0.23156027
63	0x3e8033c9	0.2503951
64	0x3e112581	0.14174463
65	0x3e6e1b3c	0.23252577
66	0x3dd62c5b	0.10457679
67	0xbe7efcac	-0.24901074
68	0x3e704486	0.2346364
69	0xbd873151	-0.06601203
70	0xbe933f08	-0.28759027
71	0x3bc93731	0.0061406125
72	0xbe43ff3b	-0.19140331
73	0xbd87b215	-0.06625763
74	0x3d90e72b	0.07075342
75	0xbe8e40a0	-0.2778368
76	0xbd1db0f2	-0.038498826
77	0x3e15e71a	0.1463894
78	0x3cf17a7b	0.029477349
79	0xbb2ff040	-0.002684608
80	0x3e7cd3ef	0.24690221
81	0xbe7191a8	-0.2359072
82	0x3e4a4310	0.19752145
83	0x3d5675ca	0.052358426
84	0x3d8059f1	0.06267155
85	0xbe912cef	-0.28354594
86	0xbc63f217	-0.013912699
87	0x3e29c82e	0.16580269
88	0x3e609743	0.21932702
89	0x3e2f0729	0.17092575
90	0x3d456e5c	0.04820095
91	0x3e8480a3	0.25879392
92	0x3e52202a	0.20520082
93	0x3e099605	0.13436134
94	0xbd79bddb	-0.060972076
95	0x3e2ac432	0.16676405
96	0x3e701666	0.23446044
97	0xbe2fd6ca	-0.1717178
98	0x3d61d567	0.055135157
99	0xbdf9c197	-0.121951275
100	0xbdd58d6c	-0.10427365
101	0xbe63f7e6	-0.22262534
102	0x3e35e93a	0.1776475
103	0x3d804b79	0.06264395
104	0x3e513883	0.20431714
105	0xbdbc39c7	-0.09190708
106	0xbe66763b	-0.22506039
107	0x3e251c7b	0.16124146
108	0xbe8d18b8	-0.2755792
109	0xbd6d70ea	-0.05796901
110	0xbe2db5ed	-0.1696393
111	0x3e900bb2	0.28133923
112	0xbd28f52b	-0.041249435
113	0xbe47949c	-0.19490284
114	0x3e44ea03	0.19229893
115	0xbd9fe213	-0.07806792
116	0xbe5ee0ee	-0.21765491
117	0xbd050443	-0.032474767
118	0x3e4ac0ca	0.19800106
119	0xbe4bf714	-0.19918472
120	0xbe7c2b41	-0.24625875
121	0xbd3f2241	-0.046663526
122	0xbe2fa740	-0.17153645
123	0xbe6bc096	-0.23022684
124	0xbc998fc7	-0.018745316
125	0x3e4e4727	0.2014433
126	0x3e5cb35f	0.215528
127	0xbc30759e	-0.01077023
128	0xbd912d1e	-0.070886835
129	0xbc5572e2	-0.0130278785
130	0x3e1b344c	0.15156668
131	0xbe21eede	-0.15813777
132	0xbd8bd91c	-0.0682852
133	0xbd570931	-0.052499
134	0xbddfddaa	-0.10930951
135	0xbd745c02	-0.059658058
136	0xbe66db5c	-0.22544616
137	0xbdf03bf2	-0.11730184
138	0x3e90686c	0.28204668
139	0xbe923b5f	-0.28560922
140	0x3e6d4db0	0.23174167
141	0x3e1f00c3	0.15527634
142	0x3e823309	0.25429562
143	0x3d24e99e	0.040261857
144	0xbe814784	-0.25249875
145	0x3e803323	0.25039014
146	0x3e2dac26	0.169602
147	0x3e71ebe7	0.23625146
148	0x3cef1d6b	0.029188832
149	0x3dde48d5	0.10853735
150	0xbdc18e4b	-0.09450968
151	0x3e3ff7e7	0.18746911
152	0x3e7577b2	0.23971441
153	0x3e12d067	0.14337312
154	0xbe4f57ea	-0.2024838
155	0x3e80cc34	0.25155795
156	0xbda0c2a5	-0.078496255
157	0xbe8b4265	-0.27199093
158	0xbe8f82be	-0.28029436
159	0xbd895efb	-0.06707569
160	0x3e4d6bd7	0.20060669
161	0xbe847bcf	-0.25875708
162	0x3d9f9e94	0.07793918
163	0xbca5a243	-0.020218974
164	0x3e90fdf0	0.2831874
165	0xbdac1eb4	-0.08404294
166	0xbe47f5f5	-0.19527419
167	0x3d57dc81	0.052700523
168	0x3dd156fc	0.10221669
169	0x3e15e619	0.14638557
170	0x3e2a2445	0.16615398
171	0xbe7fa8e5	-0.24966772
172	0xbe4ba29d	-0.19886251
173	0x3e90a225	0.28248706
174	0xbe81bc9a	-0.25339204
175	0x3e04bcef	0.12962697
176	0x3e597ca8	0.21238959
177	0xbe616a77	-0.2201327
178	0xbe4d3dbe	-0.20043084
179	0xbe093a1d	-0.13401075
180	0x3c34a0b4	0.011024643
181	0x3e71a7d2	0.23599175
182	0xbe90ca7e	-0.2827949
183	0x3daeec88	0.085412085
184	0xbe903a79	-0.2816961
185	0x3e93337e	0.28750223
186	0x3d81dc8d	0.06340895
187	0x3e8b8d8a	0.27256423
188	0xbe025ae4	-0.12729985
189	0x3cb65ec7	0.02226199
190	0xbd3b6ccd	-0.045758057
191	0x3e610135	0.21973117
192	0x3d08f006	0.03343203
193	0x3e0a26aa	0.13491312
194	0xbdb3d473	-0.08780756
195	0xbe4350ff	-0.19073866
196	0xbe88f75b	-0.26751217
197	0x3e521d7f	0.20519064
198	0xbdcd1a61	-0.10014797
199	0xbe8f440e	-0.2798161
200	0xbde31dd3	-0.11089673
201	0x3db0bc20	0.08629632
202	0xbe476c22	-0.19474843
203	0x3dc9bb91	0.098502286
204	0xbd83facf	-0.06444322
205	0xba71b179	-0.0009219866
206	0x3b629257	0.0034572089
207	0x3de2c144	0.11072019
208	0xbde56893	-0.112015866
209	0x3e195f51	0.14977767
210	0xbd968ff0	-0.07351673
211	0x3e8600a5	0.26172367
212	0xbe3daa80	-0.18522072
213	0x3e84c4ad	0.25931302
214	0x3e06e4ba	0.1317319
215	0x3c8027a4	0.015643902
216	0x3ddb39ed	0.10704408
217	0x3da5322b	0.080662094
218	0x3da4fb92	0.08055796
219	0x3d62a96f	0.055337366
220	0x3e02cfd5	0.12774594
221	0x3c670b15	0.014101763
222	0xbe820c97	-0.2540023
223	0xbd3296b5	-0.043600757
224	0xbe80f193	-0.25184307
225	0xbe09a333	-0.13441162
226	0xbe6e9eea	-0.23302808
227	0x3e106042	0.1409922
228	0x3e2b8d2b	0.1675307
229	0x3d2964a2	0.041355737
230	0xbcddcc17	-0.027074857
231	0xbe021e59	-0.12706889
232	0xbd1ad5bb	-0.037801486
233	0xbe40aeb9	-0.18816651
234	0x3e8d328f	0.27577636
235	0x3dc85f0b	0.09783753
236	0x3e7d7e63	0.24755244
237	0xbe3da92a	-0.18521562
238	0x3cc52332	0.024064634
239	0xbe0f862c	-0.14016026
240	0xbe5cb093	-0.21551733
241	0x3e805a61	0.25068954
242	0x3d03862a	0.03211037
243	0xbd6d9bdb	-0.058009963
244	0xbdf87991	-0.12132562
245	0xbd02862f	-0.03186625
246	0x3e08b04c	0.13348502
247	0xbc857613	-0.016291654
248	0xbe65c709	-0.22439207
249	0xbe114c93	-0.14189367
250	0x3e89cd2e	0.26914352
251	0xbe46f0b3	-0.19427757
252	0x3e083f07	0.13305293
253	0x3e05e495	0.13075478
254	0x3e8ba223	0.27272138
255	0xbdef03b0	-0.11670625

gcn2.bias f4 [1, 12]
0	0xbcd4d376	-0.025979739
1	0x3cb475b1	0.022028776
2	0xbe119000	-0.14215088
3	0xbe26bb45	-0.16282375
4	0x3e359e96	0.17736277
5	0x3e15b5ad	0.14620085
6	0x3e417cd6	0.18895277
7	0x3e868975	0.26276746
8	0x3ddfeb65	0.1093357
9	0xbe90cc11	-0.2828069
10	0xbe38302d	-0.17987128
11	0xbc71d1a9	-0.0147594595

gcn3.weight f4 [34, 12]
0	0xbe1e2607	-0.15444194
1	0xbe80f51b	-0.25187
2	0xbdbf3b75	-0.093375124
3	0xbd3ae651	-0.045629803
4	0xbe7561ad	-0.23963042
5	0xbe00bc00	-0.12571716
6	0x3e006844	0.12539774
7	0xbda65cd2	-0.08123173
8	0xbde1e543	-0.11030056
9	0x3d891cd2	0.0669495
10	0x3d3d6e3f	0.046247717
11	0x3e1bcc80	0.1521473
12	0x3d7a3ca8	0.061093003
13	0xbe007452	-0.12544373
14	0x3e4210f6	0.18951783
15	0x3e0ee317	0.13953815
16	0x3e37286b	0.17886512
17	0x3e0a2eb8	0.13494384
18	0x3df6ec01	0.12056733
19	0xbe667560	-0.22505713
20	0xbd655d76	-0.055997334
21	0xbd19abf6	-0.03751751
22	0xbde042fd	-0.10950277
23	0x3dda0c1e	0.106468424
24	0x3da8689f	0.0822308
25	0x3e864796	0.2622649
26	0x3e7ded15	0.24797471
27	0xbe5adf46	-0.21374235
28	0xbda0c57a	-0.07850166
29	0x3e3344ff	0.17506789
30	0xbd550019	-0.052002046
31	0x3ba456f0	0.0050152466
32	0x3e168d14	0.14702255
33	0x3e4f300a	0.20233169
34	0x3dc6cb2c	0.09706721
35	0xbdc7092a	-0.09718545
36	0xbdbe75a0	-0.09299779
37	0xbcf4d7ac	-0.029887997
38	0x3e90c5a8	0.282758
39	0xbc94355e	-0.018091854
40	0x3db38617	0.0876581
41	0x3c8556d3	0.016276753
42	0x3e850feb	0.25988707
43	0x3e2ee94d	0.17081185
44	0xbe26ad39	-0.16277017
45	0x3e7cb60c	0.2467882
46	0xbe8cc2eb	-0.2749246
47	0xbe82b81b	-0.25531086
48	0x3e85851a	0.2607811
49	0xbd920f9a	-0.07131882
50	0x3bfa31cb	0.0076353303
51	0x3e62a41a	0.22132912
52	0xbe5dd70f	-0.2166407
53	0x3e5c7ec5	0.21532734
54	0xbe4d9ab4	-0.20078546
55	0x3e4ac9d9	0.19803561
56	0xbddf8ddd	-0.1091573
57	0x3e8752a8	0.2643025
58	0x3e30fd90	0.17284226
59	0xbe3fc70d	-0.18728276
60	0x3e4e1a41	0.20127203
61	0xbe78739f	-0.24262856
62	0x3e3eaa3f	0.18619631
63	0xbe5f17dc	-0.21786445
64	0xbe81d6c4	-0.25359166
65	0xbe891bfe	-0.2677917
66	0xbd8eaa2f	-0.06966054
67	0x3e861f07	0.26195547
68	0x3e5b5fda	0.21423283
69	0xbd8b24b0	-0.06794107
70	0xbd423538	-0.047414035
71	0x3e0fe5df	0.14052533
72	0x3ddab01f	0.10678124
73	0xbe616ad3	-0.22013406
74	0x3d3fb138	0.04679987
75	0xbe888bf3	-0.26669273
76	0xbe760789	-0.24026312
77	0xbe602b92	-0.21891621
78	0x3d2a2108	0.041535407
79	0xbe6e269e	-0.23256919
80	0x3d84a983	0.06477644
81	0xbe732303	-0.23743825
82	0x3d15ddaf	0.036588367
83	0xbd5d4833	-0.054023933
84	0x3db6c5f6	0.08924477
85	0x3e5c4c47	0.21513472
86	0xbdee0aa2	-0.11623122
87	0xbbea0759	-0.007141989
88	0xbd7e600f	-0.062103327
89	0x3e24a4d8	0.16078508
90	0x3dc9e5d2	0.09858288
91	0xbe43ff59	-0.19140376
92	0xbe92bc1c	-0.2865914
93	0x3e869868	0.26288152
94	0xbe8a860c	-0.27055395
95	0x3c714e75	0.014728178
96	0xbe4d791e	-0.20065734
97	0xbe0fe163	-0.14050822
98	0xbbf97ac6	-0.0076135127
99	0x3dbffada	0.09374018
100	0xbe23d8cb	-0.16000669
101	0xbb5eb557	-0.0033982599
102	0xbe8258c3	-0.25458345
103	0xbe2c7cbd	-0.16844459
104	0xbd7f0d5f	-0.06226861
105	0xbe7568c6	-0.23965749
106	0xbe7a6aac	-0.24454755
107	0xbe3d7a7d	-0.18503757
108	0x3e071f72	0.13195589
109	0xbd4f0877	-0.050545182
110	0xbdb0c26c	-0.08630833
111	0xbd78c1ea	-0.060731806
112	0xbdf22470	-0.11823356
113	0x3e760aeb	0.24027602
114	0xbe187273	-0.14887409
115	0xbde28bc1	-0.11061812
116	0xbe113124	-0.14178902
117	0x3e0f6b99	0.14005889
118	0xbdede389	-0.116156645
119	0xbc5df515	-0.013547202
120	0x3d5baeb7	0.053633418
121	0xbd0c2e2e	-0.034223728
122	0xbde72e8d	-0.11288176
123	0xbe3cae42	-0.18425849
124	0x3cb12a41	0.021626594
125	0xbdd3f3c2	-0.103492275
126	0x3db62ae8	0.088949025
127	0x3e8bd76c	0.2731279
128	0x3e55119c	0.20807499
129	0x3bcfad96	0.0063378317
130	0x3e4ff57a	0.20308486
131	0x3bbd1b66	0.0057710884
132	0x3df20e76	0.118191645
133	0x3d283d48	0.041074067
134	0xbdd533c5	-0.10410265
135	0xbded3e94	-0.115842015
136	0xbdc5a57f	-0.096507065
137	0xbd9f731d	-0.07785628
138	0xbddbfc4c	-0.10741481
139	0x3ca63ff4	0.020294167
140	0x3ca35539	0.019938098
141	0x3dc258e3	0.0948961
142	0x3e3ed878	0.18637264
143	0x3da08d75	0.07839481
144	0x3dd20222	0.10254313
145	0xbe4a285c	-0.19741958
146	0xbde489d8	-0.11159104
147	0x3e899bc1	0.26876643
148	0x3c9c1408	0.01905252
149	0xbe8af147	-0.27137205
150	0x3e32dd2c	0.17467183
151	0x3e2b4542	0.16725639
152	0xbe46fd1c	-0.19432491
153	0x3e191a5c	0.14951462
154	0xbe8d432c	-0.2759031
155	0xbd7fa3b3	-0.062411975
156	0x3cf42340	0.029801965
157	0x3e00986c	0.12558144
158	0x3d1059b3	0.035241794
159	0x3e0e71ce	0.139106
160	0x3dd653c7	0.10465198
161	0x3e0d8db7	0.13823591
162	0x3e8e3b53	0.27779636
163	0x3debdd7e	0.11516856
164	0x3e81fcc7	0.25388166
165	0xbe6bb0fd	-0.23016734
166	0x3cd0f676	0.025508147
167	0x3e6e5629	0.23275055
168	0x3e5fbca5	0.21849306
169	0xbd368ecf	-0.044569787
170	0x3e42471e	0.18972442
171	0x3d85eb7e	0.06539057
172	0x3e0405a2	0.12892774
173	0x3dede290	0.11615479
174	0x3d1e68a6	0.03867402
175	0x3d20fcb4	0.039303496
176	0x3db6afa5	0.0892022
177	0xbe641c25	-0.22276361
178	0xbe87722b	-0.2645429
179	0xbdc1475a	-0.09437437
180	0xbe640edc	-0.22271293
181	0xbe7bbccb	-0.24583738
182	0x3e75ba4a	0.23996845
183	0x3db6f5d4	0.08933607
184	0xbe4f25ee	-0.20229313
185	0xbe78fea9	-0.24315895
186	0x3e39f29c	0.18158954
187	0xbe7ee716	-0.2489284
188	0xbdfc2059	-0.12310857
189	0x3e5613dd	0.20906015
190	0x3e7fc99b	0.2497925
191	0xbe4f774a	-0.20260349
192	0x3e5c7f1c	0.21532863
193	0x3c6e803c	0.014556941
194	0x3d356124	0.044282094
195	0x3c920b0a	0.01782753
196	0x3e8cd528	0.27506375
197	0x3e1d3c99	0.15355147
198	0x3e795bc5	0.24351414
199	0xbdf6d52e	-0.120523795
200	0xbe8024ea	-0.25028163
201	0xbe2f004a	-0.17089954
202	0xbe5aefcf	-0.21380542
203	0x3e04a635	0.12954028
204	0x3deec7fd	0.116592385
205	0x3e0642be	0.13111398
206	0xbe1856d2	-0.1487687
207	0x3e6bdfe6	0.23034629
208	0xbe805651	-0.25065854
209	0xbe2de5fb	-0.16982262
210	0xbd6f345e	-0.05839955
211	0xbcc132a3	-0.023583716
212	0xbde35580	-0.11100292
213	0x3d72058d	0.059087325
214	0x3d93e2fc	0.07221028
215	0x3e374a2b	0.17899387
216	0xbdae9272	-0.08524026
217	0xbdb2c84e	-0.08729611
218	0xbe8fecc4	-0.28110325
219	0xbdd439de	-0.103626
220	0xbe3228ce	-0.17398378
221	0x3d1e3b8b	0.038631003
222	0xbd63229b	-0.055452924
223	0xbd6fbd0e	-0.058529906
224	0x3e7824c7	0.2423278
225	0xbda93d1a	-0.08263607
226	0x3c6fa00b	0.01462556
227	0x3e5c55e2	0.21517137
228	0xbd84331e	-0.06455062
229	0x3d0b367f	0.03398752
230	0xbe2bdddf	-0.16783856
231	0xbe4367c4	-0.19082552
232	0x3e0ee62f	0.13954996
233	0xbe723d2c	-0.23656148
234	0xbd1d766a	-0.038443007
235	0xbe4d7bc1	-0.2006674
236	0x3dcd7b52	0.10033287
237	0xbe04fc29	-0.12986816
238	0x3c7c9a1e	0.015417604
239	0xbe397247	-0.1811
240	0x3d10758f	0.035268363
241	0xbe62b557	-0.22139488
242	0xbe5bee77	-0.21477686
243	0xbe7071a6	-0.23480853
244	0x3e1f2d8d	0.1554472
245	0x3e664100	0.22485733
246	0x3e55594a	0.20834842
247	0xbdaa3947	-0.08311706
248	0xbce00fe4	-0.027351327
249	0x3e83a148	0.25708985
250	0xbd25a11c	-0.04043685
251	0x3d0b4c9e	0.034008615
252	0xbe5e401a	-0.2170414
253	0x3e125de5	0.1429363
254	0xbe917300	-0.2840805
255	0xbe24f0ed	-0.16107531

gcn3.bias f4 [1, 12]
0	0xbd6ccfcc	-0.057815358
1	0xbd3c0374	-0.04590173
2	0x3e8c7a1f	0.2743692
3	0x3e4ed668	0.20198977
4	0xbd4862e8	-0.04892245
5	0x3e92ede4	0.2869712
6	0x3deb5af5	0.11491958
7	0xbe4b6eaa	-0.19866434
8	0xbce1dad0	-0.027570158
9	0x3e7003ae	0.23438904
10	0xbcdca0a9	-0.026932077
11	0x3e89e3a9	0.26931503

fc1.weight f4 [12, 1224]
0	0xbcb0d812	-0.021587405
1	0x3cad4b10	0.021153957
2	0xbce7f4cf	-0.028314976
3	0xbb99985e	-0.004687353
4	0x3cb07aae	0.021542873
5	0xbc73f291	-0.014889375
6	0xbc01f63e	-0.007932244
7	0x3c748946	0.014925307
8	0xbc1550ef	-0.009113534
9	0x3b5699dc	0.0032745516
10	0x3cd688d8	0.026188299
11	0x3c520c2b	0.012820284
12	0xbbb5f7f6	-0.005553241
13	0x3c41330d	0.011791957
14	0xbcba08fd	-0.022709364
15	0x3c36c116	0.011154434
16	0x3c04ec05	0.008112912
17	0x3bf520d9	0.0074807224
18	0xba153e3a	-0.00056931714
19	0xbbda5130	-0.0066625103
20	0x3cacb8f9	0.021084296
21	0x3c9d339a	0.019189645
22	0x3c93fd27	0.018065048
23	0xbc06fa89	-0.008238443
24	0x3c8a1a07	0.016858114
25	0x3ce86297	0.028367324
26	0x3cd32529	0.025774555
27	0xbc59c29e	-0.013291029
28	0x3ce9a23f	0.028519748
29	0xbc0da072	-0.00864421
30	0x3c12311c	0.008922841
31	0xbce268cd	-0.027637864
32	0x3cbdfbe3	0.023191398
33	0x3c62f5ec	0.013852578
34	0xb81830d2	-3.628509e-05
35	0x3c89e113	0.016830957
36	0xbc012d08	-0.007884271
37	0x3c571d03	0.0131294755
38	0x3c49ca94	0.012316365
39	0x3c29b206	0.0103573855
40	0xbc65fa89	-0.014036783
41	0x3cb94573	0.022616124
42	0x3c3118ae	0.010809107
43	0xbce54e27	-0.027991368
44	0x3cb54adf	0.022130428
45	0xbba6d8fb	-0.005091784
46	0x3bae1774	0.0053128544
47	0xbbb9b6e5	-0.0056675547
48	0xbc518719	-0.012788557
49	0xbc8bc955	-0.017063776
50	0x3cd72038	0.02626048
51	0x3c915a71	0.017743321
52	0xbc97bbca	-0.018522162
53	0x3cdf62ad	0.027268732
54	0xbca1b37c	-0.019738905
55	0x3c9064c3	0.017626172
56	0xbbc78491	-0.006088801
57	0x3bcd4257	0.006264012
58	0x3c2435fe	0.010022638
59	0xbcbee27e	-0.02330136
60	0x3cdaf558	0.026728317
61	0x3cc991bb	0.024605623
62	0x3cdfdf96	0.027328294
63	0x3c5990bd	0.013279137
64	0xbc8906d4	-0.016726889
65	0xbb66efe9	-0.0035238212
66	0x3cd207b9	0.025638448
67	0xbcc2e3e8	-0.023790315
68	0xbc57de60	-0.013175577
69	0x3c133203	0.008984092
70	0xbcb33110	-0.02187398
71	0x3a5e06fa	0.00084696675
72	0x3c9de957	0.019276304
73	0xbc6dc002	-0.01451111
74	0x3ca9c268	0.020722583
75	0x3c23bce6	0.009993767
76	0x3cba1870	0.02271673
77	0xbbd8fd32	-0.00662198
78	0xbc003830	-0.007825896
79	0x3bf3be13	0.00743843
80	0xbc1e99a2	-0.009680184
81	0xba91eda7	-0.0011133448
82	0xbbe4bd23	-0.0069805547
83	0xbcc61f40	-0.024184823
84	0x3c939d7c	0.01801943
85	0x3cd452c7	0.025918378
86	0xbc7408a6	-0.01489464
87	0xbc886b04	-0.016652592
88	0x3c8b7c71	0.017027112
89	0xbc9e0bce	-0.019292738
90	0xbce6ebf9	-0.028188692
91	0xba749de9	-0.0009331392
92	0x3cc43005	0.023948679
93	0x3a8eee99	0.0010904848
94	0x3cc89aa5	0.024487803
95	0xbb48d3f6	-0.0030643917
96	0x3cb334d8	0.021875784
97	0xbb4b6ab0	-0.0031038933
98	0x3c502771	0.012704716
99	0x3c19dc5a	0.009390915
100	0x3b3b615b	0.0028591964
101	0x3b0d9e00	0.0021609068
102	0xbc83dc0a	-0.016096134
103	0xbc7ac127	-0.01530484
104	0xbcac7707	-0.02105285
105	0xbc95a843	-0.01826871
106	0xbc8e50da	-0.017372537
107	0x3cb8b4e2	0.02254719
108	0x3cd09247	0.025460375
109	0x3c92f7d9	0.017940449
110	0x3c8475b5	0.016169408
111	0x3c49dff5	0.012321462
112	0xbcbf5032	-0.02335367
113	0xbb6e2835	-0.0036339883
114	0xbc04ddee	-0.008109553
115	0xba932953	-0.0011227526
116	0x3c296da3	0.010341081
117	0x3cb8462e	0.022494402
118	0x3bc74642	0.0060813734
119	0x3cc5247f	0.024065254
120	0x3ba22794	0.0049485657
121	0x3c7283bc	0.014801916
122	0x3c75e5a8	0.015008368
123	0x3c4bcc0b	0.012438784
124	0x3cc65463	0.02421016
125	0x3c9a4380	0.018831015
126	0x3c7931fd	0.015209672
127	0xbce815f1	-0.028330775
128	0x3c8b7b12	0.017026458
129	0x3ccbc13b	0.024872413
130	0x398cd594	0.0002686201
131	0x3ce80fc8	0.028327838
132	0xbcac23dd	-0.021013195
133	0x3b98b246	0.0046599237
134	0xbcc2c34d	-0.023774767
135	0x3cca2ea9	0.024680452
136	0xbbb742d7	-0.0055926847
137	0xbce31169	-0.027718263
138	0xbcb3a8cb	-0.021931073
139	0xba64ac3e	-0.0008723176
140	0x3cbd571b	0.023112824
141	0xbc9d30dc	-0.019188337
142	0x3be0ab3a	0.0068563493
143	0xbb7fbe46	-0.0039023324
144	0xbc741082	-0.014896514
145	0xbc34908b	-0.01102079
146	0xbc43a0a2	-0.011940153
147	0xbcc831ae	-0.024437752
148	0x3ca29f8e	0.019851472
149	0x3cb85454	0.022501148
150	0xbc491d38	-0.012275033
151	0xbb78650c	-0.0037902026
152	0x3c266081	0.010154844
153	0x3ba8e8e2	0.005154715
154	0xbc051f21	-0.0081250975
155	0x3bda5940	0.0066634715
156	0x3c7a23a1	0.015267284
157	0x3bf3e42d	0.007442972
158	0xbccbdf18	-0.024886653
159	0xbc73f833	-0.014890718
160	0xbcd048c1	-0.025425317
161	0x3c331538	0.010930352
162	0xbcbccceb	-0.023046931
163	0xbce6b9ac	-0.028164707
164	0x3c2cd5cf	0.010549023
165	0x3c7c2491	0.0153895775
166	0x3ccf5a8f	0.025311736
167	0xbc9b4cf2	-0.018957589
168	0xbbb69d16	-0.0055729253
169	0xbc339f8f	-0.010963335
170	0xbcb6b0e3	-0.022301143
171	0x3b64ddec	0.0034922315
172	0xbcc9c9e0	-0.024632394
173	0xbce429eb	-0.02785202
174	0xbb5cf0a3	-0.0033712767
175	0xbcd403e3	-0.02588076
176	0x3c081b50	0.008307293
177	0x3b31e565	0.0027144786
178	0x3c0fc9be	0.008776126
179	0xbc5357c6	-0.012899345
180	0xbcd5ec34	-0.026113607
181	0x3c98d9a4	0.018658467
182	0xbc9aa937	-0.018879516
183	0x3c91f5c5	0.017817387
184	0x3b7b84dc	0.003837875
185	0x3cc54b1d	0.024083668
186	0x3cce5506	0.025187027
187	0x3a69cf11	0.00089191
188	0x3c448921	0.011995585
189	0xbc0ee417	-0.008721373
190	0x3c2b67f2	0.010461794
191	0xbce690cc	-0.028145216
192	0xbcbf77ff	-0.023372648
193	0xbc90f19d	-0.017693335
194	0xbccbbd6e	-0.0248706
195	0x3c9b0d87	0.018927349
196	0xbc9cfd5f	-0.019163786
197	0xbcadc557	-0.021212263
198	0x3cdd0285	0.02697874
199	0x3c5f2b57	0.013621173
200	0xbc27e7ad	-0.010248107
201	0x3b340be7	0.0027472915
202	0x3b9a159e	0.004702284
203	0xbb5441ac	-0.0032387776
204	0xbcde0b75	-0.027105073
205	0xbc986f24	-0.018607683
206	0xbb3504c0	-0.002762124
207	0xbb54a76d	-0.0032448426
208	0x3b6c8193	0.0036087974
209	0x3bc7b797	0.0060948837
210	0xbcbf484b	-0.023349902
211	0xbc9f30b9	-0.019432412
212	0xbc98f6aa	-0.018672306
213	0xbc7cb2d0	-0.015423492
214	0xbce25f8f	-0.027633457
215	0x3cb78052	0.022400055
216	0xbccb90f1	-0.024849387
217	0x3c02c703	0.007982018
218	0xbcdd8293	-0.027039802
219	0xba77f4e3	-0.0009458793
220	0xbbc6e8fd	-0.006070255
221	0xbc61efea	-0.01379011
222	0x3c5f7328	0.013638295
223	0xbc7db538	-0.0154851
224	0xbc44b6b4	-0.01200645
225	0xbca53bb3	-0.020170068
226	0x3cb09bda	0.02155869
227	0xbb1cc89d	-0.0023923286
228	0xba6774c3	-0.00088293495
229	0x3ccb3d1b	0.02480941
230	0x3b240200	0.0025025606
231	0xbcb51557	-0.022104902
232	0x3bd84fde	0.006601318
233	0x3c03094f	0.007997825
234	0xbb9089c4	-0.004410954
235	0x3c8d4012	0.017242465
236	0xbb617965	-0.0034404632
237	0xbcda712c	-0.026665293
238	0x3c616b1e	0.013758449
239	0xbcc764b8	-0.024340019
240	0xbcaf9226	-0.021431994
241	0xbc173ee8	-0.009231307
242	0x3c09618b	0.008385072
243	0x3ca3a301	0.019975187
244	0x3ac491eb	0.00149971
245	0xbca0b303	-0.01961661
246	0xbc089c73	-0.008338082
247	0xbcaf4b5d	-0.02139824
248	0x3cd978df	0.026546894
249	0xbc10fe50	-0.008849695
250	0xbc8ca2d2	-0.017167483
251	0xbc855203	-0.016274458
252	0x3b87e16e	0.0041467464
253	0xbc075bb4	-0.00826161
254	0xbcb153ca	-0.021646399
255	0xbcad631f	-0.021165429

fc1.bias f4 [12]
0	0xbbc60286	-0.0060427813
1	0x3c16299c	0.009165194
2	0xbc0f6755	-0.008752664
3	0x3cc08c97	0.023504538
4	0xbbdd7484	-0.0067582745
5	0xbca71f9a	-0.020400811
6	0xbc5a93d8	-0.013340913
7	0xbce51512	-0.027964149
8	0x3cdf3891	0.027248653
9	0x3c890bf7	0.016729338
10	0x3c8a9029	0.016914444
11	0x3c9d4b57	0.019200964

fc2.weight f4 [12, 12]
0	0x3e3ad171	0.18243958
1	0xbe25e26c	-0.16199654
2	0x3e622c42	0.22087196
3	0xbe2aac3a	-0.16667262
4	0xbd686497	-0.056736555
5	0xbe542554	-0.20717365
6	0x3e681b60	0.22666693
7	0xbe16745a	-0.14692822
8	0xbe0b51f5	-0.13605483
9	0xbbff64e0	-0.0077940077
10	0xbd38ef31	-0.045149986
11	0x3c086625	0.008325134
12	0xbdd5ee2f	-0.104458205
13	0x3e05aeda	0.13054982
14	0x3e89b506	0.26895922
15	0xbdee7b13	-0.11644568
16	0x3d9f3499	0.07773704
17	0x3e17c03b	0.14819424
18	0xbe4d25d8	-0.20033967
19	0xbdd779a2	-0.105212465
20	0x3de38c96	0.11110799
21	0x3d1b6d77	0.03794619
22	0xbe679cff	-0.22618483
23	0x3df2aef7	0.11849778
24	0x3e3567ca	0.17715374
25	0x3d5b0c71	0.053478662
26	0xbe1447da	-0.14480534
27	0xbe2160d4	-0.15759593
28	0x3e7dcfa1	0.24786235
29	0xbd643c2c	-0.055721447
30	0xbe267b4b	-0.1625797
31	0x3bbab07a	0.005697307
32	0x3e908b56	0.28231305
33	0xbe8d6def	-0.27622935
34	0xbcdbf440	-0.026849866
35	0x3e836166	0.25660247
36	0x3ca8f989	0.0206268
37	0xbe20d6f1	-0.15706994
38	0x3e904bce	0.28182834
39	0xbddac0cf	-0.106813066
40	0x3e1d2d7d	0.15349384
41	0x3e694539	0.22780313
42	0x3bd0cd65	0.006372141
43	0xbe927e02	-0.2861176
44	0xbe658d94	-0.22417289
45	0xbdd88b6c	-0.105734676
46	0x3e800ce8	0.25009847
47	0x3e48c995	0.19608147
48	0x3df2ba2b	0.11851915
49	0xbe5ca5f7	-0.21547686
50	0xbe3ec7bc	-0.1863088
51	0x3e44fd66	0.19237289
52	0x3e58f6c1	0.21187879
53	0xbc36f213	-0.011166113
54	0x3e0af17e	0.13568684
55	0x3e7e3b7f	0.24827383
56	0x3e70502e	0.23468086
57	0x3e0e8cb7	0.13920866
58	0x3d0526de	0.03250777
59	0xbe1c07d5	-0.15237363
60	0xbb65d092	-0.0035066945
61	0xbc5026b0	-0.012704536
62	0xbe25b68f	-0.16182922
63	0xbdab8d97	-0.083766155
64	0x3e3919b5	0.18076213
65	0xbd8dcb99	-0.06923599
66	0xbe290285	-0.16504867
67	0x3e277923	0.16354804
68	0xbd4d352c	-0.050099537
69	0x3cc873af	0.024469225
70	0x3e423a2c	0.18967503
71	0x3e84d3ad	0.25942746
72	0x3e8d349c	0.275792
73	0xbdd00312	-0.101568356
74	0xbe502b22	-0.20328954
75	0x3e3f8360	0.1870246
76	0xbdef32b5	-0.116795935
77	0xbc9f96f7	-0.019481165
78	0xbaeeb2c0	-0.0018211231
79	0xbe74ab40	-0.23893452
80	0xbe75a429	-0.23988403
81	0xbdcbeadb	-0.099569045
82	0xbde63204	-0.112400085
83	0x3e4d943d	0.2007608
84	0x3d22f095	0.03978022
85	0x3de2015a	0.11035414
86	0xbe75caff	-0.24003218
87	0xbe1d0c33	-0.15336685
88	0xbe3cbb55	-0.18430836
89	0xbdbd4067	-0.092407994
90	0xbe3403f2	-0.1757963
91	0x3de2c4e5	0.11072711
92	0xbe171eac	-0.14757794
93	0x3d9a57d9	0.07536287
94	0x3e813a7d	0.25239936
95	0xbe219269	-0.15778507
96	0x3e88884c	0.26666486
97	0xbd949cc9	-0.07256467
98	0xbe297cb6	-0.1655148
99	0xbe74a24d	-0.23890038
100	0x3e7da9f5	0.24771865
101	0xbe7584e5	-0.23976476
102	0xbe7bc05b	-0.24585097
103	0x3e62b252	0.22138336
104	0xbe04618d	-0.12927838
105	0xbdfa9c4c	-0.122368425
106	0xbe88a130	-0.26685476
107	0xbd7d45ce	-0.06183415
108	0x3e2e7a17	0.17038761
109	0x3e84d66f	0.2594485
110	0x3e3d0f36	0.18462834
111	0xbdaaf138	-0.0834679
112	0xbe5c2de0	-0.21501875
113	0x3e5fa245	0.21839245
114	0xbd099c94	-0.03359659
115	0xbe8f8752	-0.2803293
116	0xbe6afe05	-0.22948463
117	0x3e8e0f20	0.27745914
118	0xbe4ca7e9	-0.19985928
119	0xbe127df3	-0.14305858
120	0x3d659df1	0.056058828
121	0x3d15f859	0.036613796
122	0x3dfeb2fb	0.124364816
123	0xbe29fb14	-0.16599685
124	0x3e73f141	0.238225
125	0xbd4aa7a6	-0.04947629
126	0xbe12b4e1	-0.14326812
127	0xbd759a99	-0.05996189
128	0xbe3e954d	-0.18611641
129	0x3e565b1f	0.20933197
130	0xbceb30f9	-0.028709875
131	0xbe25a8b7	-0.16177641
132	0x3e5df2ef	0.21674703
133	0x3e8755e7	0.26432726
134	0xbd593697	-0.053030577
135	0x3e88d8b3	0.26727828
136	0xbe2a3230	-0.16620708
137	0xbe6a247f	-0.22865485
138	0x3e251c3d	0.16124053
139	0xbe5501a9	-0.20801415
140	0x3d7f709a	0.062363245
141	0xbcda6ac9	-0.026662247
142	0xbda28b6b	-0.07936748
143	0x3e79736c	0.24360436

fc2.bias f4 [12]
0	0xbd94762c	-0.07249102
1	0x3e80acef	0.25131938
2	0x3e0a1a29	0.13486542
3	0xbe8a5ecc	-0.2702545
4	0xbe49f534	-0.19722444
5	0x3d01b64d	0.031667996
6	0xbe8f785a	-0.28021508
7	0x3e2f662a	0.17128816
8	0x3e126961	0.14298011
9	0x3e90bce4	0.28269112
10	0x3e66e515	0.22548325
11	0x3e5574d2	0.20845345

fc3.weight f4 [6, 24]
0	0x3d871475	0.06595699
1	0xba54f71d	-0.0008123981
2	0xbe2666a5	-0.16250093
3	0x3e31b7dc	0.17355293
4	0x3da4b907	0.08043104
5	0xbd9adff4	-0.07562247
6	0x3d91b833	0.07115211
7	0xbd0d88e1	-0.034554366
8	0xbe118b39	-0.14213265
9	0x3d971d8c	0.073786825
10	0x3de893ee	0.1135634
11	0xbe1de5ce	-0.15419695
12	0xbd7f3871	-0.062309686
13	0xbe1b8afd	-0.15189739
14	0xbe11d041	-0.14239599
15	0xbd3108be	-0.043221228
16	0xbdccea8e	-0.10005675
17	0xbcf77c42	-0.030210618
18	0xbda8c202	-0.08240129
19	0x3c1edde6	0.009696459
20	0x3d917a1f	0.07103371
21	0xbe17390f	-0.1476786
22	0xbe106294	-0.14100105
23	0xbd4774fe	-0.048695557
24	0x3e00c7a0	0.12576151
25	0xbdd41209	-0.103550024
26	0xbe394d00	-0.1809578
27	0xbb27e6d5	-0.0025619764
28	0xbd998b4c	-0.07497272
29	0x3d5aa5a6	0.05338063
30	0x3e4f98d4	0.20273143
31	0x3dd61b51	0.10454429
32	0xb9061c0d	-0.00012789686
33	0x3d58595d	0.0528196
34	0xbda32330	-0.07965696
35	0xbdfac67d	-0.1224489
36	0x3dd9a484	0.10627082
37	0x3c9e0b80	0.019292593
38	0xbe168f6b	-0.14703147
39	0xbe015749	-0.12630953
40	0xbdbdd296	-0.09268682
41	0x3e184d7b	0.14873306
42	0x3e239860	0.15976095
43	0xbe25de43	-0.16198067
44	0x3ce2aa7a	0.02766918
45	0xbc0ca780	-0.008584857
46	0xbd273889	-0.0408254
47	0xbdf28ca7	-0.118432336
48	0x3d0d933d	0.034564245
49	0xbe2f42a6	-0.17115268
50	0xbdea1421	-0.114296205
51	0xbe449c25	-0.1920019
52	0x3deee93f	0.11665582
53	0x3e19e942	0.15030387
54	0x3cde2fdc	0.02712243
55	0xbcc4c84f	-0.024021296
56	0x3e05c07b	0.13061707
57	0x3dd7f214	0.105442196
58	0x3d736865	0.05942573
59	0xbd14c695	-0.036322195
60	0x3e50d881	0.2039509
61	0x3e0f30b9	0.1398343
62	0x3dbb8882	0.09156896
63	0xbdb4a70b	-0.088209234
64	0xbe207e33	-0.15673141
65	0x3e17d118	0.14825857
66	0x3e0bfbda	0.13670292
67	0x392d25f8	0.0001651271
68	0xbde720fc	-0.11285588
69	0xbda51649	-0.08060891
70	0x3ca9365c	0.020655803
71	0x3e3fc803	0.18728642
72	0xbe136778	-0.14394939
73	0x3e41251a	0.1886181
74	0xbe290c4c	-0.16508597
75	0xbc71648c	-0.014733445
76	0xbe16a2c2	-0.14710525
77	0xbc951c16	-0.018201869
78	0xbe0cf679	-0.13765897
79	0x3e0d8232	0.13819197
80	0x3db95946	0.09050231
81	0x3c8363e2	0.016038839
82	0xbd598215	-0.05310257
83	0xbdea013c	-0.11426017
84	0x3e0718c5	0.13193043
85	0x3d0ffb49	0.035151754
86	0xbe4c7b57	-0.19968925
87	0xbd642be3	-0.055705916
88	0x3d23ec26	0.04002013
89	0xbd9b503f	-0.07583665
90	0xbcde8b34	-0.027165987
91	0xbd3d5b0c	-0.046229407
92	0x3e3a9f47	0.18224822
93	0xbe2158bc	-0.15756506
94	0xbe4ab0bc	-0.19793981
95	0xbb6af5ac	-0.0035851998
96	0x3e45a8de	0.19302699
97	0x3d75d557	0.06001791
98	0xbe1a750d	-0.15083714
99	0x3d4143b7	0.04718372
100	0x3bf421b6	0.0074503077
101	0xbe1277b1	-0.14303471
102	0x3e3f9b0a	0.18711486
103	0x3d75f281	0.060045723
104	0xbbfcffc7	-0.0077209207
105	0x3e43e373	0.19129734
106	0xbe277c84	-0.16356093
107	0x3e336328	0.17518294
108	0x3e43d9fd	0.19126125
109	0x3d71e5c2	0.059057005
110	0x3d4c9a7d	0.04995202
111	0x3e194382	0.14967158
112	0xbcf158cf	-0.029461293
113	0xbd9d6b15	-0.0768644
114	0xbd9a59c1	-0.075366504
115	0xbe249743	-0.16073327
116	0xbe39abdf	-0.1813197
117	0xbd92e9af	-0.07173478
118	0x3e440834	0.19143754
119	0xbdad8d99	-0.08474273
120	0xbdf7b4c7	-0.120950274
121	0xbe03b1fb	-0.12860863
122	0xbe4e3b07	-0.20139705
123	0x3e29281e	0.1651921
124	0x3dfb96c9	0.12284619
125	0x3e4b4de0	0.19853926
126	0xbe11b298	-0.14228284
127	0xbdf6f090	-0.120576024
128	0xbd33355d	-0.043752063
129	0x3e1a29e5	0.15055044
130	0x3e178b9a	0.14799348
131	0xbcf9427c	-0.03042721
132	0xbe48f718	-0.19625509
133	0xbc3a8317	-0.011383793
134	0xbb78c998	-0.0037961956
135	0x3e1ea38d	0.15492077
136	0xbdb0cb2c	-0.08632502
137	0xbdb428d8	-0.08796853
138	0x3e0f6108	0.14001858
139	0xbe399286	-0.181223
140	0xbc1a4ad7	-0.009417257
141	0xbd852864	-0.065018445
142	0x3df59341	0.11990977
143	0x3d1bbc6f	0.0380215

fc3.bias f4 [6]
0	0xbdeb2426	-0.11481504
1	0xbdf4ddf4	-0.11956397
2	0x3d1b078e	0.037849
3	0xbe1413a9	-0.14460625
4	0xbe3b5e08	-0.18297589
5	0x3dd0562c	0.10172686
