dicewars/ai/xklemr00/model.pth (torch, 68353 bytes, 12 tensors)

gcn1.weight f4 [34, 12]
00000000: fcbc 693e 1d02 2d3e 469c 4ebe 48d4 a9bc
00000010: 992e 203e 3171 823e de06 453e bf8d d7bd
00000020: a582 b2bc f8b3 2ebe fd7c 003e 8451 86be
00000030: bfb6 463e 65fa b3bd efd2 3c3d 2bca 10bd
00000040: 06ad e23c a88e 933e 5053 81be 01b9 163d
00000050: 16ea 803e 9f7a 14be b2c5 a63d 43c7 97bd
00000060: 97b8 2dbd 23d5 c7bd 1208 1a3e 7664 7b3e
00000070: fd6f bd3d bb78 9cbd eb57 693e 53d9 a23d
00000080: feae f33c 11a8 bc3c 646f ac3d 8914 2ebe
00000090: 4d2f 8d3e af9d 583e 5384 933e 17ac f63d
000000a0: 9c9e 463e a2ba d2bc d492 ebbc bc3f 18be
000000b0: 1c63 e23d f205 4b3e b68e d73d 1ce1 13bd
000000c0: abba 60be 43ae dfbd a48a fc3c aaec 11be
000000d0: 21cd 9ebd 3ffd bc3c ace4 89be ce5d ffbc
000000e0: 2b1b 67be cff1 143e dca1 1c3e 1175 62bd
000000f0: 8652 b73d 9063 9d3d 848e 8f3e 0952 323c
00000100: 4bfb 363e 2707 e1bd 20ea 06be 7e5d f8bb
00000110: 02a7 713e 3ee7 213d f185 61bd fe2f 4b3d
00000120: 946b 8f3e d1c8 063c b2d7 d03d dd55 963e
00000130: 6b83 30be c62f a03c d21f 54bd f96c 0f3c
00000140: 9145 5ebd f13f e83d a70e 95bd dd8c 2c3e
00000150: 015c 473e 8f8f 14be 99ae c43d b973 9e3d
00000160: 5ec3 1abe cba6 10be 06e4 7e3e 23a4 fbbc
00000170: 8c03 bfbd 819c 84be a771 293e c5f4 24bd
00000180: 145e 423d 7e40 f73d 9741 003e af3a b2bd
00000190: 5d47 403e 1128 373d 7e17 29be 773e 013d
000001a0: e141 41be 988f 503e 4f7b 193e 66ef ea3d
000001b0: 478f 8a3c 1fd5 21be 5a44 de3d 7858 2c3e
000001c0: 23c7 3b3c 2edf 68bd 5eb4 893e 03ea 38be
000001d0: ee86 3bbe c5dc cbbd 5cd5 783d 1c95 4c3e
000001e0: eed0 34bc c4c6 753e 6203 c13b 84aa dc3d
000001f0: 9398 7cbe 20b7 e73c 362c b2bd 95f7 7cba
00000200: 652d 803e d034 973c 75df 8abd 269e 70be
00000210: c958 883c f5b0 0cbe 83db b13d b917 58be
00000220: afe1 f33d 93c5 d13d a37e 183e e784 843e
00000230: c5da 833d 97b3 f33c a9eb 0abd dbf6 86be
00000240: c3d1 84be 40e6 92bd c040 43be 508a f9bd
00000250: 8f68 e23d 3edf 11bd 3294 743e b2ae 243d
00000260: 7a50 863e 0e02 483e 9696 4dbe 383f 0c3e
00000270: 0c41 573e 8e13 52be 315e ebbd f63e a13d
00000280: b0be 183d 8d28 c3bd 2ca4 8abe eaa5 0bbe
00000290: 69ff e73d 45dd cfbd 0696 cabd a6b5 ec3d
000002a0: 357b 6d3d e88d 8d3e ccd7 9f3c 0385 2a3e
000002b0: df8f 2f3e d18d 073e 2974 18be fe76 523e
000002c0: 89dd c2bd 4f0f 08bd 9da6 6f3e c85c 433d
000002d0: 056e 22bd fe00 65be d5da 3a3e 3be3 2cbe
000002e0: c07e 33be b341 49be 73c4 7dbe d08c 5abe
000002f0: c7e2 5dbe 231a 0d3e 8d7f 8dbd 2a25 773d
00000300: a57f f5bd 2654 7f3e cdb7 8dbd 4a03 453e
00000310: 92cf 7d3e c2df 3f3e e78d a6bc 8729 bbbd
00000320: 1684 2abe 9119 093e 9064 083e 6a52 bdbd
00000330: 5940 51be 6667 58be 54c5 07bd 47e7 123e
00000340: c8cd c8bd 9884 6f3e 8f12 73bc cdf2 673e
00000350: 7c22 483e 6a07 ce3c 54be 523d 395e 603e
00000360: 17d5 93bd 97bc 023d 7adc 8e3e d9cc ca3d
00000370: ae73 5abe 029d 6abe ae34 9c3d 5674 b0bd
00000380: 5f81 74bd 815d 33bd 8544 383d 7284 63be
00000390: d2f8 653e 9732 3e3e e71d 373d 3f58 8abd
000003a0: dd27 80be 1b10 6ebe 66f1 8b3e 4dc4 503d
000003b0: 6975 80be 2a0c 83be 2a49 3d3e 44cb 743e
000003c0: 11ea d6bd f56a d03c fd36 1f3e 6051 933c
000003d0: d8d8 89be d657 0ebd b5dc 973c 6dab 1a3e
000003e0: d7c8 37be 834a fabd f775 313e fb26 38be
000003f0: c18d acbd 08a3 fa3d f409 97be 8d44 953e
0.22825998 0.16895337 -0.20176801 -0.020731106 0.15642776 0.25476983 0.19240901 -0.10525083
-0.021790812 -0.1706084 0.12547679 -0.26234066 0.1940565 -0.08787993 0.0460996 -0.035349052
0.027670395 0.28819776 -0.25258875 0.036797527 0.25178593 -0.14499901 0.08143176 -0.07411053
-0.042412367 -0.097574495 0.15042141 0.24550042 0.09249876 -0.07640215 0.22787444 0.079516076
0.029746529 0.023029359 0.084196836 -0.17000021 0.2757515 0.21153902 0.28811893 0.12044542
0.19396442 -0.02572376 -0.028756537 -0.14868063 0.1105406 0.19826487 0.10525267 -0.036103353
-0.21946208 -0.1092191 0.030827828 -0.14250436 -0.07753969 0.023069976 -0.26932275 -0.03117266
-0.22568958 0.14545368 0.1529612 -0.055287424 0.08951287 0.07685006 0.28038418 0.0108838165
0.17869298 -0.10987692 -0.13175249 -0.0075795045 0.23598865 0.03952717 -0.055059377 0.049606316
0.28011763 0.008226589 0.101973906 0.29362383 -0.17237632 0.01955403 -0.05178816 0.008754008
-0.054265562 0.11340321 -0.07278185 0.1685061 0.1946869 -0.14507888 0.09603614 0.07736916
-0.15113589 -0.14126126 0.24891672 -0.030717915 -0.093268484 -0.25900653 0.16547261 -0.040272493
0.047453 0.12072848 0.1252502 -0.08702599 0.18777223 0.044715945 -0.16512868 0.03155371
-0.18872787 0.20367277 0.14988445 0.11471443 0.016914023 -0.15803955 0.10852881 0.16830623
0.011461052 -0.056853466 0.26895422 -0.18058018 -0.1831319 -0.09954218 0.06075035 0.19978756
-0.011036141 0.24001604 0.005890296 0.10774711 -0.24667577 0.028285563 -0.08699839 -0.00096499297
0.25034633 0.0184578 -0.06780902 -0.23497829 0.016643899 -0.13739379 0.08684447 -0.211028
0.1190828 0.102427624 0.14892058 0.25882646 0.06438211 0.029748721 -0.03391615 -0.2636021
-0.25941285 -0.07172823 -0.19067669 -0.12184584 0.11055099 -0.03561329 0.23884657 0.040205665
0.26233274 0.19532034 -0.20076975 0.13695991 0.21020907 -0.20515272 -0.11492575 0.07873337
0.03729123 -0.09529219 -0.27078378 -0.1363751 0.113280125 -0.10149626 -0.09891896 0.11558084
0.057978828 0.27647328 0.01951208 0.16652302 0.17144726 0.13237692 -0.14888062 0.20553204
-0.09514911 -0.033217724 0.23403402 0.047695905 -0.039655704 -0.2236366 0.1824754 -0.16883557
-0.1752882 -0.19653969 -0.2478197 -0.21342778 -0.2166854 0.13779502 -0.06909094 0.060338177
-0.11987237 0.24934444 -0.06919823 0.19239536 0.24786213 0.187377 -0.020331336 -0.0913878
-0.1665195 0.13388659 0.13319612 -0.09244235 -0.20434703 -0.21133193 -0.03314717 0.14346038
-0.09804875 0.23390424 -0.014835968 0.22651215 0.19544405 0.02515002 0.051451042 0.21910943
-0.07218378 0.031918135 0.27902585 0.09902353 -0.21333191 -0.22911456 0.07627235 -0.08615939
-0.05969369 -0.043790344 0.04498722 -0.22218493 0.22458199 0.18573986 0.04470625 -0.06755113
-0.25030413 -0.23248331 0.2733261 0.050968457 -0.25089577 -0.25595218 0.18484941 0.23905665
-0.104938634 0.025441626 0.1554832 0.017983139 -0.2692325 -0.034751736 0.018537859 0.15104456
-0.17947708 -0.12221243 0.17330156 -0.1798362 -0.08425475 0.12238127 -0.2949978 0.29153863

gcn1.bias f4 [1, 12]
00000000: dca5 3dbe c5bf 99bc 02ec c8bd 3d79 8dbe
00000010: 90a2 6b3b 9cf7 71be 6bcd 583d 8f83 d23d
00000020: dc0d 57be a88c 1abe 308d 22be 8ea5 89be
-0.18520302 -0.0187682 -0.0981064 -0.2763156 0.003595505 -0.23629612 0.052930277 0.10278999
-0.2100138 -0.15092719 -0.15874171 -0.2688412

gcn2.weight f4 [34, 12]
00000000: c988 923e dc96 603e f80c 803e c79a 183e
00000010: 4053 7abd d746 f43d 151d 3d3e a594 0c3d
00000020: c3ce 283e 5a38 8d3e aa6f af3c d1c2 82be
00000030: ddb5 8bbe 49f3 253e dcb0 373e 8d78 7ebd
00000040: 99f1 d8bc 27fd 66be 02f0 f9bd 41d2 0fbd
00000050: c046 febc 09ef 93be fbff 073e bc32 283e
00000060: 749a 813e 1aef 1dbe 5ec2 6a3e 244b 24be
00000070: 2981 c2bd adbe 5abe cfe7 9db9 2611 f7bd
00000080: 4134 f7bd 96d0 2cbe 3e37 8dbe db48 8a3e
00000090: 01de 5bbd 9f8a efbc 8ac7 8b3e 5754 183e
000000a0: 6ac9 dd3d 2bb7 2a3d a859 8d3d 8e54 723e
000000b0: a4cb 873e 22ae d9bd fcd0 4b3b 422c 3a3e
000000c0: f388 9fbd 80ff 363d db79 7abe 53a4 463e
000000d0: 85fa 793d 5c00 68be 74f7 8fbe a1b0 863e
000000e0: d0a1 693e 15c8 e93d eb93 fc3d a09a b83d
000000f0: cf54 f43d 6e2a 20be e4c4 773e dbab 3dbe
00000100: 17fb e83d 2808 fcbd 112e da3c 2eff a1bd
00000110: fc8a 153b bd5f e0bd ad2f 8dbd a1dc 503e
00000120: 9d27 51bd 71bd 90be bc9e 843d e18f 6ebe
00000130: 9044 c53d 3bcd 1ebe 2f40 443e fce6 92bd
00000140: ef39 863e 5658 93bd ab38 c83c a68f a23c
00000150: e07c 833e 09ab 3abe bcbc 65be c848 8fbe
00000160: e4e2 543e 2af3 8b3d b1a0 803e f11b ddbd
00000170: 4e44 e5bd 17ce 1abe 05f6 c23c f939 843e
00000180: c387 8e3e 1930 353e 57b6 003e 7414 f2bd
00000190: 240f 563d 20f1 d83c b537 91bd e2b1 cbbd
000001a0: 8220 023e 01f7 b3bd 3844 01be dc90 71be
000001b0: 3b85 87be da37 24bc 37eb 88be f787 19be
000001c0: f563 7d3e 96f6 cabc 5e5d ae3d 439e 6fbe
000001d0: 31bc 85be 9012 903e 7e80 64bd eea7 e73d
000001e0: 3cf7 8c3e beb3 9dbd fdd0 14be d55f 763e
000001f0: 245e c43d b60a 8dbe 2352 8cbe 57bd 863d
00000200: b152 893e 4aee a7bc b6a9 a5bd 7d17 273c
00000210: b6d0 8ebe 441a ccbc 7d86 13bd e632 72be
00000220: d073 43bd e9c5 8abd 8bb4 c0bd 96a1 83bd
00000230: ef8d 54be 06f7 153e f8d1 063e c0d1 f43b
00000240: 47ec ec3d f92f e03d 0228 4abd f832 383c
00000250: 87bc 063e 826b 27be 4b57 913e d65a 17be
00000260: 5475 153e 8391 083e 0084 80be 938e febd
00000270: 25a9 2b3c 8b69 cebd b438 5e3e 8c8f e5bd
00000280: a5d1 10be 3bc7 013d 8903 acbd d70b 863d
00000290: a9aa ff3c e370 48bd 605d 9a3d cb67 3bbe
000002a0: 785e 7dbe e8f5 af3d 7b3b 39be 20c7 89be
000002b0: 10d0 11be 3dd7 64bd 6247 97bd 5f25 5d3e
000002c0: 4a53 3a3e f0ed 3b3e 0fe4 d13d 6bdf 73be
000002d0: 1eaf 69bd 57de 0ebe 925d 823e 5eab 42be
000002e0: a828 e63d 6aae be3d 85a7 623e 7d1b c6bd
000002f0: 8336 d63c 7b97 1ebe ce4b 7c3e f0ba 573d
00000300: ffb6 393e 23c4 683e 13a5 18be 9d9a 333e
00000310: 7cb9 12be 3443 45be 86a2 8d3e a4f6 fcbd
00000320: bc7e 38be f496 a9bd e953 f63d 14b7 a9bd
00000330: a413 a0bd dc81 07be 7834 ac3d d985 f23d
00000340: 234f 4cbe 3d86 92be 2415 bb3c 7cc8 b33d
00000350: ab1f c43d ea10 0bbe aa0f 3fbd 6d5e 91bd
00000360: c062 653e 49f5 c43d ab93 0f3e 854f 3a3d
00000370: 92d1 7ebe a728 cd3d 95de 113d 75fb 37be
00000380: 90a0 473d 6d75 ab3b 207c 003e dd5d 043e
00000390: 275a 6abe c51c 193e be07 ae3c d8c8 e0bc
000003a0: d0b7 8e3e c09f babd 7912 333d a8c0 4cbd
000003b0: b5c0 3f3d 11a4 06be 8c22 763e 9d26 69be
000003c0: 62ba 653e 8937 17be 4a2f 0a3e 0b68 453e
000003d0: dfd5 183e 3ebc 1bbe 4bf2 58bd 6c69 3bbd
000003e0: be6a 8e3e 085a 57be dbaa 333e 03b8 223e
000003f0: 3537 ce3d 469b acbd 774d 5abe 3185 9ebd
0.28619984 0.21932548 0.25009894 0.14902793 -0.06111455 0.11927574 0.18468125 0.034321446
0.16485123 0.27582055 0.02141555 -0.25539258 -0.27287188 0.16206087 0.1793856 -0.062126685
-0.02648239 -0.22557507 -0.12203981 -0.035112623 -0.031039596 -0.28893307 0.13281243 0.16425604
0.2531315 -0.15423241 0.22925708 -0.16044289 -0.094972916 -0.213618 -0.00030118084 -0.12063818
-0.120705135 -0.16876444 -0.2758121 0.2700871 -0.053678516 -0.029240904 0.27300674 0.14875923
0.10829432 0.04167859 0.06901866 0.23665068 0.26522553 -0.10628916 0.0031099906 0.18180946
-0.07789793 0.044677258 -0.24460547 0.19398622 0.06102993 -0.22656387 -0.2811848 0.26306632
0.22815633 0.11415116 0.123329006 0.090138674 0.119302385 -0.15641186 0.24196202 -0.18522589
0.113760166 -0.12306243 0.026633294 -0.0791 0.0022818437 -0.10955761 -0.06893859 0.20396663
-0.05106317 -0.28269532 0.06475589 -0.23297073 0.09632218 -0.15507977 0.19165109 -0.07172963
0.26216075 -0.07194583 0.024441084 0.019843888 0.2568121 -0.18229307 -0.22435278 -0.27985215
0.20789677 0.06833489 0.25122598 -0.10796345 -0.11194669 -0.1511768 0.023798952 0.2582548
0.27837953 0.17694129 0.12569557 -0.118203074 0.052260533 0.026482165 -0.070907034 -0.09946038
0.12707713 -0.08787347 -0.1262368 -0.23590416 -0.26468834 -0.010023082 -0.26741955 -0.14993273
0.24745162 -0.024775784 0.08513902 -0.23400216 -0.2612014 0.28139162 -0.055786602 0.11311327
0.27532375 -0.07700299 -0.14532848 0.24059995 0.095882684 -0.27547234 -0.27406415 0.065790825
0.268209 -0.020499367 -0.080890104 0.010198471 -0.2789361 -0.024914868 -0.03601693 -0.23652229
-0.04771787 -0.067760296 -0.09409436 -0.064273044 -0.20757268 0.14645013 0.13166034 0.007471293
0.11568504 0.1094665 -0.04935456 0.011242621 0.13157855 -0.16349605 0.28386912 -0.14780745
0.14595538 0.13336758 -0.25100708 -0.124295376 0.010477339 -0.100787245 0.21701318 -0.1120902
-0.14142473 0.03168414 -0.08399112 0.06545227 0.031209307 -0.048935782 0.07537341 -0.18301313
-0.24743068 0.08591825 -0.18089096 -0.26909733 -0.14239526 -0.05586933 -0.07386662 0.21596287
0.18195835 0.18352485 0.10248577 -0.23815696 -0.05705177 -0.13952003 0.25462013 -0.19010684
0.11238223 0.093106106 0.22134216 -0.09673212 0.02614904 -0.15487473 0.24638292 0.052668512
0.18136214 0.2273107 -0.14906721 0.17539449 -0.14328569 -0.19263917 0.27663058 -0.123517305
-0.18017095 -0.08280745 0.12027723 -0.082868725 -0.07816246 -0.13233131 0.08408445 0.11841936
-0.19952063 -0.2861804 0.02283723 0.08778474 0.09576353 -0.13580671 -0.046645798 -0.070980884
0.22400951 0.09617097 0.14021175 0.045485992 -0.24884632 0.100175194 0.03561266 -0.17967017
0.04873711 0.005232504 0.1254735 0.12926431 -0.22885953 0.14952381 0.021243926 -0.02743952
0.27874613 -0.09112501 0.04371879 -0.04998842 0.04681464 -0.13148524 0.24036616 -0.22768636
0.2243438 -0.14767279 0.13494602 0.1927797 0.14925335 -0.15208527 -0.052965444 -0.045754835
0.27815813 -0.21030438 0.17545645 0.15890507 0.10069124 -0.084280536 -0.21318613 -0.07740248

gcn2.bias f4 [1, 12]
00000000: 032d 8c3e 709d 5b3c 17a6 42be 5dd9 a9bd
00000010: 84d5 79ba 58bb 5a3e f85a ddbd 853a 993d
00000020: 3348 18bd d97e 82be a2b3 8d3c 580b 8ebd
0.2737809 0.013404235 -0.19008671 -0.08293412 -0.00095304125 0.21360528 -0.108083665 0.07481865
-0.03717823 -0.25487402 0.01729757 -0.069357574

gcn3.weight f4 [34, 12]
00000000: 40de 85be 20fd d4bd 675d 973d d7d1 64bd
00000010: f4e5 8abe 4545 7bbc 3ccb 65be 1e7d c1bd
00000020: 94e4 7ebe 8724 9e3c 19b3 663e 6540 123e
00000030: dce6 3f3d c1ce e8bc 96fd dbbd 9eee 623c
00000040: 143b 413d 2867 cf3d 1106 23be 8dd7 363e
00000050: 12e6 243e 5e28 473e aef2 80be 72f5 85be
00000060: a922 4e3e 7bcb 4c3c 5d8d 3dbe 8a4b 8cbd
00000070: 8404 3fbe 53f0 8cbe 10cd 83bd 92f8 5dbe
00000080: 85fa 553e 3cd9 c6bd c505 973d 0e28 ea3d
00000090: 44f1 e3bd d301 aa3d 93f4 8d3e fcbe 263e
000000a0: 594b 2fbe e6f8 00be 6c3c 983d 2501 b8bd
000000b0: 2e3d 523c 67b3 e0bd 4f84 19bd ff58 9ebd
000000c0: 348a 923e 54fb 813e e45d 373e 3c97 d4bd
000000d0: 13fa b33d fba5 dcbd 76c5 c53d b220 bdbd
000000e0: 5ea3 5d3d 3ab6 81be 43e8 81be afc2 803e
000000f0: c2f0 04be b028 793e cf1c a43d 38e0 393e
00000100: ba50 853e 3573 043d e8ba 9e3c 6d9b 29be
00000110: 2dc0 68be 1e0f 3bbe 1218 bebd a9cc 793d
00000120: 2492 0c3e c9fe 323e 0186 763d cc8a c3bb
00000130: dd31 633e 9b89 9c3d c4a1 773d ba26 90be
00000140: 87be 67be df83 d3bd c27a 053c 8d45 1d3d
00000150: 8151 f43c fffe 14be df6a b2bd 1178 953d
00000160: 9a29 923d 5395 873e ebc1 623e dda0 003d
00000170: 6849 4abe 2ca1 1ebe 7bf7 c33d cc87 79be
00000180: 44a7 9f3d 7207 473e a602 753c 65c1 c0bd
00000190: fe4a 72be 18a0 16bd de5c 2c3e 6c29 41be
000001a0: 1828 733d e8b5 cf3d f1a1 ba3d b6f0 59be
000001b0: 0dff d9bd 72a2 1dbe 48db 4c3e 3d11 6fbe
000001c0: d6ce 80be fd34 13be a065 04be c40e 193d
000001d0: 6408 7bbd d10a 143e 8c91 eb3d 25e3 f43c
000001e0: d643 3ebe 6317 f73d 3f27 ef3d 57db 793d
000001f0: c38e 8a3e d19d 38bd c50b 2b3c fc33 edbd
00000200: daa9 afbd a3ad 46be c0ce c43d 50b7 5bbe
00000210: 82d7 0a3e 0493 aa3c 143c 8f3e 637d debd
00000220: 7e8f 0a3e 3683 d13d 9af8 863e d115 adbd
00000230: f9fb c6bd a730 03be d679 83be d032 023e
00000240: 3f1a 09bd 8c22 f8bd 088c 243e 5861 573e
00000250: f27d 813e df79 193e 3b05 143d 3784 4f3e
00000260: 28d1 1dbe cc7d 483e ed8c 50be f528 503e
00000270: 9cd7 18be b9ea f73d df1a 62be bc52 233e
00000280: d7b7 8ebe 2ba8 583e 83ea 593e c0aa 6e3e
00000290: 6dc7 09be 1888 843e 9ccd 4e3d a331 013e
000002a0: af85 08be c36e 64be 0917 d6bd 065e 3b3e
000002b0: e7e3 193d 7c38 91be 396c 973e 31fe 40be
000002c0: efdd 27be 4f4e 8dbe ccd0 a3bd ccba b33d
000002d0: a82d 38be 9a97 66be 6340 253e f869 13be
000002e0: 0312 0bbe fa49 3cbe 859a 0cbe 9ce3 87be
000002f0: 3e5d 6bbe 4729 2b3e 526c f13d 6959 293d
00000300: b088 4abe 76e2 44be 2e2d 063e 8b8f 82bd
00000310: 1bcf 6ebe 9a62 513e a9c2 40be 55f8 c53c
00000320: 0951 c13c 5231 9e3d c6dd 82be f9bd 8e3e
00000330: 6959 8d3e b153 0c3e 0f0c 86be c673 91be
00000340: 84d2 b23d 150d af3d 2d96 86be 92ac 53be
00000350: 9bb4 70be 2320 533e fff6 4c3e db11 2abe
00000360: 8326 5a3e 0bbf 8b3e 76c1 86be 2636 b2bd
00000370: 1c7f 663e a1e3 113c 1b3d 383e 4c6e 57be
00000380: bc87 41be a95b 883e 89b3 383e 370f fdbd
00000390: e5a6 0ebe 6416 60be e409 a03d 251a 48be
000003a0: 2c5d 803e b6f9 183e c2e4 50be 355a ffbd
000003b0: a333 cabd f044 61be 15f6 4f3e 3476 503e
000003c0: 0f68 54bd 4431 0abe 04a6 853e 145c 513e
000003d0: e833 6bbd fc25 9abe 81d5 91be ed5d 86bc
000003e0: db6a 09be ed06 853d 079f 2e3d a64d 65bd
000003f0: d981 8abd f4d1 1dbe fc91 ad3d 9061 d2bd
-0.26146126 -0.10399842 0.07390862 -0.05586418 -0.27128565 -0.015336339 -0.22440809 -0.09447692
-0.24891883 0.019304527 0.22529258 0.14282377 0.046851024 -0.0284189 -0.10741727 0.013850836
0.047175482 0.10127097 -0.15920283 0.17855664 0.1610339 0.19448993 -0.2518515 -0.26163822
0.2013041 0.012499685 -0.18510957 -0.068503454 -0.18654066 -0.27527103 -0.06435597 -0.21676853
0.20896347 -0.09709403 0.07374147 0.11433421 -0.11130002 0.08301129 0.27725658 0.16283792
-0.17118587 -0.12594947 0.074333996 -0.08984593 0.012831969 -0.10971718 -0.037479695 -0.077318184
0.28621066 0.2538706 0.1790691 -0.10380408 0.08787932 -0.10773846 0.09656803 -0.09234752
0.054110877 -0.2533434 -0.25372514 0.25148532 -0.12982467 0.24331927 0.08013307 0.18151939
0.26038152 0.032336432 0.019376233 -0.16563196 -0.22729559 -0.18267485 -0.09281935 0.060986195
0.13727623 0.17480005 0.06018639 -0.0059674736 0.2218699 0.07643434 0.060457006 -0.28154546
-0.22631274 -0.10327887 0.0081469435 0.038396407 0.02982402 -0.14550398 -0.0871179 0.072982915
0.07136841 0.26481113 0.22144286 0.03140341 -0.19754565 -0.1549117 0.095686875 -0.24368209
0.07795575 0.19436434 0.014954245 -0.09411887 -0.2366142 -0.03677377 0.16832301 -0.18863457
0.05936441 0.10142118 0.09112919 -0.2128323 -0.1064435 -0.15393999 0.20005524 -0.2334642
-0.25157803 -0.14375682 -0.12929392 0.037367597 -0.0612873 0.14457251 0.1150237 0.029893467
-0.18580565 0.120650075 0.116774075 0.061000194 0.27062044 -0.04507238 0.010439818 -0.11582181
-0.085773185 -0.19402175 0.09609747 -0.21456647 0.13558772 0.020822056 0.27975523 -0.10863759
0.135313 0.102301046 0.26361543 -0.08451427 -0.09716029 -0.12811528 -0.2567889 0.12714696
-0.033472296 -0.12115964 0.16069043 0.21033227 0.252914 0.14987896 0.0361378 0.2026528
-0.15411818 0.19579238 -0.20366259 0.20328124 -0.14925998 0.12105317 -0.22080563 0.1594953
-0.27874634 0.21157901 0.21280865 0.23307323 -0.13454981 0.2588508 0.050489053 0.12616591
-0.13332246 -0.22307877 -0.10453612 0.18297586 0.03757086 -0.28363407 0.29574755 -0.18846966
-0.16393255 -0.27598807 -0.07998809 0.08775863 -0.17986166 -0.22518769 0.16137843 -0.14395893
-0.1358109 -0.18387595 -0.1373082 -0.2654084 -0.22984788 0.16714965 0.117882386 0.041345034
-0.19778705 -0.19227013 0.13103172 -0.06375035 -0.23321192 0.2044777 -0.18824257 0.024166266
0.02359821 0.07724251 -0.25559825 0.27879313 0.27607277 0.137038 -0.26181075 -0.2840864
0.08731559 0.08547417 -0.2628645 -0.20671299 -0.23506396 0.20617728 0.20016097 -0.16608374
0.21303754 0.27294192 -0.26319474 -0.08701734 0.22509426 0.008904369 0.1799206 -0.21038169
-0.18899435 0.2663243 0.18037237 -0.123564176 -0.13930853 -0.21883541 0.078143865 -0.19541223
0.25071084 0.14939007 -0.20399764 -0.124683775 -0.0987313 -0.21998954 0.20308717 0.20357591
-0.05185705 -0.13495356 0.26103222 0.20445281 -0.05742255 -0.30107105 -0.28483203 -0.01640221
-0.13419668 0.064954616 0.04263213 -0.055982254 -0.06763048 -0.15412122 0.0847511 -0.10272515

gcn3.bias f4 [1, 12]
00000000: 3aa6 36be e1e4 c43d cf08 2e3e d6f0 51be
00000010: a3ef 88be 985d 313e 113e 48be 72f3 0abe
00000020: 7012 71bd cf7a 8a3d 3a9b 183e de13 b43c
-0.17836848 0.09613968 0.16995548 -0.20502028 -0.26745328 0.1732086 -0.19554926 -0.1356943
-0.058855474 0.06761705 0.14902964 0.02198213

fc1.weight f4 [12, 1224]
00000000: f843 04bd ff8a 98bc 6942 e83c c782 13bc
00000010: 66d1 9cbc 7b2e b53a 75ee f4bb 9cb0 25bb
00000020: aad3 9ebc c0a1 4abb e81b 17ba 5b5c e33c
00000030: bda5 423c 21fd d53b 176c b3bc d766 833c
00000040: 0364 67bb e68f 5d3c 9aea 293c 6a0e debc
00000050: da7a f6bc 1ade 5dbc 3a4f 87bc f534 5d3c
00000060: 296a acbc a5ec d8bc 1a27 6a3c 30d4 bfbc
00000070: 2a9a f7bc a0fb a6bb 99d6 da3b 67c3 c8bc
00000080: e79d 17bc d0c3 4abb 1349 a63c 71d8 7f3c
00000090: d2bd b9bc ddea 04bb 5993 f0bc 616b 103c
000000a0: 8334 03bb 666d dd3c 92bf aebb af4d a9bc
000000b0: c0a6 c5bc 42d4 5abc ad3d bd3c 99a6 0bbb
000000c0: b202 9bbb 745b b2bc 2c29 633c b55b 023c
000000d0: 36ac d039 a8c3 08bc bd72 79bc 8a35 573b
000000e0: fdec 05bd a92d 96bc 5646 96bc c0a8 2abb
000000f0: a6c8 433c 72ae 283c a61d 8a3c f474 113c
00000100: b290 bb3c 70df 0f3c 9be6 813b 43bb dabc
00000110: f351 eabc 0037 d53c 45ca 71bc 2395 283c
00000120: fbc2 e23c 5954 21bb 9ebd c8bc ab3b ab3b
00000130: 0173 313c ae11 c6bc e36b 87bc 59aa c5b8
00000140: 3c18 d13c 4eed 503c d877 b6bb ffbe db3b
00000150: 24fb c6bb cd0e c3bc 8181 92bc f6a1 723c
00000160: 2844 b1bc 7fa3 843c 096a 2a3c f570 143c
00000170: a952 943c 97df 083c 4589 a3bc b9db e3bc
00000180: 67f6 c6bc a8cc 533c 0d5c 44bc 2efd 3f3c
00000190: a1fa 0839 6a46 ae3c 15dd ab3c d114 d9bc
000001a0: 9d55 bcbc bbd9 9f3c be1c eb3a d773 833c
000001b0: e37b 77bc 4142 15bc abf6 e2bc d892 3dbb
000001c0: 8f37 16bc 9b03 b8bb e428 123b 042d a43b
000001d0: df66 213b 0442 2bbb 76c3 a73c 6c9d 843c
000001e0: 47fd a33c b02c c03c e3dc cfbc d240 303a
000001f0: 5981 aebc 46d1 dbbc f9b9 c8bc b04b ab3c
00000200: dc83 aa3c 3835 ee3b a309 8ebb 3d4f 49bc
00000210: 2a7c 87bc 8e34 973c b84b 823c 8083 7a3c
00000220: 5f17 8ebb 965f cbbc 088b 873c 2449 8a3c
00000230: 7c13 103c 5a21 853c 6808 b53c 8774 cdbc
00000240: 25c7 ae3c afc7 3b3c 3c88 a9bc 074c 86bc
00000250: abdc dbbc 1aee 9fbc 258c e3bc a64e a23c
00000260: 200e a1bc d512 a03c 3ca8 88bc b89c 66bc
00000270: c883 6abc 8bed 0bbc 3821 863a 0221 a3bc
00000280: a152 c93c 3eb1 893c c3a4 c3bb a00b 92bc
00000290: 2150 d03b e03f 893c 1efa 513b 4fd7 7ebc
000002a0: bf96 2d3c 181f e6bc 8fbb bbbc 7f40 e9bc
000002b0: 6db3 cdbc 8030 ff3a 6c80 24bc e6d9 a03c
000002c0: b337 dd3c d4b3 bd3b 1692 c0bc 6413 bfbc
000002d0: 3c9d 70bc aff1 343c 3bc6 49bb ff82 9b39
000002e0: 80e5 abbc 73e1 b3bc d0c8 d4bb 40d4 90bc
000002f0: 0a8c 753b 38c2 d03b 6fde a23c d875 8e3c
00000300: 701d 183b b119 ebbc ca03 1b3c aba5 473c
00000310: 0376 c9bc 380d a33b dec2 4a3c 606b d13c
00000320: 73bb 923c 564c 853b e4bc 053b d5ea babb
00000330: 68a3 873c 09c7 92bb c919 02bd fd89 6ebc
00000340: 8f2e 17bc 4028 28bc ad3e c1bc bc15 fbbb
00000350: 587d a0bc fd07 bebc b000 cbbc 1363 a6bb
00000360: ba84 21bc 6daf 573c 3087 9a3c 0b5a 2f3c
00000370: 5840 6abc 97eb 30bc 11f9 fdbc 4e88 bfbc
00000380: 637b e7bc eec8 1c3c 5a3a 8dbc 3e06 d0bc
00000390: f2b0 a03c c8f0 9cbc ce32 33ba be4a f6bb
000003a0: b4bf 9e3c a6e5 bb3c bdd2 0abd 0a63 babb
000003b0: eca3 1ebc 2025 84b9 8976 ef3a 50dc 56bc
000003c0: a8f7 52bc 70ca a7bc 39cc 27bb 639a 8a3c
000003d0: def4 cd3b dad9 c238 3675 7bbc 6982 bbbc
000003e0: 2469 80bb 3756 003b b242 4d3c 15f9 c6bc
000003f0: 3ee8 003c 89c5 1a3c 5a89 8a3c 5f7f ac3c
-0.032291383 -0.018620966 0.02835198 -0.009003348 -0.019142818 0.0013823056 -0.0074747154 -0.002528227
-0.019388039 -0.0030919164 -0.0005764351 0.027754 0.011880335 0.0065304195 -0.021902127 0.016040249
-0.0035307414 0.013523078 0.010370875 -0.027106483 -0.030087877 -0.013541723 -0.01651727 0.0135013955
-0.021046715 -0.026480028 0.014291549 -0.023416609 -0.030224878 -0.005095914 0.006678414 -0.024507238
-0.009253955 -0.0030939467 0.020298516 0.0156155685 -0.022673521 -0.002028159 -0.029367136 0.008814664
-0.0020020313 0.027029704 -0.0053328956 -0.020666925 -0.024127364 -0.01335627 0.023100698 -0.0021309017
-0.004730546 -0.021772124 0.013864797 0.007956435 0.0003980116 -0.008347429 -0.01522511 0.0032838308
-0.032696713 -0.01833232 -0.018344086 -0.0026040524 0.011949694 0.010295497 0.01685984 0.008877981
0.022896145 0.008781299 0.003964258 -0.026700621 -0.02860353 0.026027203 -0.0147576975 0.010289463
0.027680865 -0.0024616926 -0.024504479 0.005225619 0.010830642 -0.024178352 -0.016530937 -9.425422e-05
0.025524251 0.01275189 -0.0055684857 0.006706118 -0.0060724188 -0.023810768 -0.017884018 0.014809122
-0.021638945 0.016191242 0.010401257 0.009060134 0.018105822 0.008354089 -0.019962916 -0.027814733
-0.024287416 0.012927212 -0.011984837 0.011718078 0.00013063337 0.02127381 0.020979444 -0.026499184
-0.022990042 0.019513002 0.0017937643 0.016046448 -0.0151052205 -0.009110034 -0.027705511 -0.0028926637
-0.00916852 -0.005615664 0.0022302205 0.005010249 0.0024627966 -0.0026131878 0.020478945 0.016188346
0.020018233 0.023458809 -0.025373882 0.0006723526 -0.021301912 -0.026833188 -0.024502741 0.020910114
0.020814829 0.0072695278 -0.004334645 -0.012286958 -0.016538698 0.018457677 0.015905246 0.015290141
-0.004336282 -0.024825852 0.016545787 0.01688058 0.008793708 0.016251255 0.022098735 -0.025079979
0.021335194 0.0114611825 -0.020694844 -0.016393675 -0.026838621 -0.019522715 -0.027776787 0.019812893
-0.019660056 0.01954023 -0.016681783 -0.014075451 -0.014313646 -0.008540521 0.0010233289 -0.0199132
0.024575533 0.016808148 -0.005970569 -0.017827809 0.0063572084 0.01675409 0.003203995 -0.015554263
0.010595023 -0.028090999 -0.022916583 -0.028473137 -0.025109971 0.001946941 -0.010040384 0.019635152
0.027004099 0.0057892594 -0.02350716 -0.023324676 -0.014685925 0.01104395 -0.003078832 0.00029661504
-0.020983458 -0.021958089 -0.0064936653 -0.017679334 0.0037467503 0.006370809 0.019881455 0.017390177
0.0023210905 -0.028698774 0.009461353 0.012185494 -0.024592405 0.004975941 0.0123755615 0.025563896
0.017911648 0.004067938 0.0020406777 -0.0057042637 0.01655741 -0.0044792932 -0.031762872 -0.014559266
-0.009227409 -0.010263503 -0.023589456 -0.007662503 -0.019591019 -0.023197168 -0.024780601 -0.0050777285
-0.009858305 0.013164383 0.01886329 0.01070262 -0.014297567 -0.0107983565 -0.031002553 -0.023380425
-0.028257078 0.00956939 -0.017239738 -0.025393602 0.019615624 -0.019157782 -0.00068358786 -0.007516234
0.01937852 0.022936653 -0.033892382 -0.005688076 -0.009682637 -0.00025204662 0.0018269579 -0.01311405
-0.012876429 -0.020482272 -0.0025603904 0.01691932 0.006285294 9.291219e-05 -0.0153477695 -0.022889333
-0.0039187837 0.0019582638 0.012528108 -0.024288693 0.007867871 0.00944651 0.016911197 0.021056829

fc1.bias f4 [12]
00000000: 3178 7dbc 99d6 7a3b 8285 b6bc 295a 10bc
00000010: b441 f33b 7d29 b7bb 6257 a7bc 0ae0 c6bc
00000020: f5fc 30bc bcb8 08bd e412 9bbc 6b6f b0b8
-0.01547055 0.0038274883 -0.022280458 -0.008810558 0.007423604 -0.0055896626 -0.02042741 -0.024276752
-0.010802497 -0.0333793 -0.018929906 -8.413087e-05

fc2.weight f4 [12, 12]
00000000: 584f 483e b7a2 843d f1fa e03c 396d d2bd
00000010: a3f7 92bd 44ce 913d 26bf b0bd fad0 b5bd
00000020: e496 f9bd 3511 d9bc a5f0 8f3e 4801 04bd
00000030: 9b5e 7dbd 4438 40be b5cd 73bd 62ec 8a3d
00000040: 3911 543d 8e83 543e 03e2 e0bd d3d9 74be
00000050: 6316 a9bd ec8a c93d a639 1f3e 58bd f93c
00000060: 09c4 f1bd 2865 e73d df11 8b3e 6373 70be
00000070: b48e 21be bb72 d4bd 82a0 6fbd 27e7 313d
00000080: d9ac 733d 8cd2 893e d520 503e ce87 803e
00000090: 19eb 583e 7648 f9bc 3185 16be d5ad 533e
000000a0: 64d1 f33d d0f7 393e f2de 923d eaef 803e
000000b0: 82c4 1f3d ea25 4cbe da79 89bd 46ff 29be
000000c0: b47e 0abe 5bd0 44bc d381 a0bd c955 3d3e
000000d0: 4418 49be 92ec 663e 1655 dd3d d770 34bd
000000e0: dae3 283e a66e 7c3e 44aa 653e 0236 e4bd
000000f0: 1df3 ab3d 567e 4ebe dae8 5ebd f892 73be
00000100: 3e2e 6bbe a837 85be 6680 f9bd 9c62 1cbe
00000110: 33ed 64be 8b4f c13c eb52 c03d 6b05 88bd
00000120: e433 6ebe 09ec 48be fb83 31be e044 683e
00000130: 332c 32be c984 17be f958 853e c0cb 82bc
00000140: 89b6 4dbe 4075 c23b 7f04 3d3e 9d94 133e
00000150: 127e d43d f788 683e f4a9 0c3e 9928 9c3c
00000160: 09fd 00bd 93d0 f03d 5f8b d4bd 8191 0a3d
00000170: 4401 d7bd 2c52 463d 25c4 483c bb30 83bd
00000180: 7937 683e 9445 5b3c b6e2 d23d d8cd c93d
00000190: 2809 41be 0174 573e 673e 49be c7e2 263e
000001a0: 2649 2cbe a5d9 76be 4415 1abc 80a5 1dbd
000001b0: d303 06be 4f2f 3cbe 29ab 7a3d 858d 3c3e
000001c0: eae8 a93d 8eb4 d13d 585a 063d 6758 433e
000001d0: b761 2dbe 6abb f93c bcf9 33be c86f 3e3e
000001e0: 6b17 e13d e3cf 3b3c daa0 27be bd26 43ba
000001f0: f400 393e c71b 16be 4c70 8b3e 54bc f3bd
00000200: 02ae 4b3c 27da a5bd 5d30 2fbe 808d a7bd
00000210: b029 f0bd 1d77 5ebd bc1d 543e 747f a03d
00000220: 5ea4 f03b 0165 57be 4dfc 543e 3f3a 113e
00000230: a950 173e e2be e2bd 7bcf 023e 345b 14be
0.19561517 0.06476348 0.027463408 -0.10274739 -0.07176139 0.0711942 -0.08630209 -0.0887775
-0.12186983 -0.026497463 0.28113285 -0.032227784 -0.0618578 -0.18771464 -0.05952235 0.06783368
0.051774237 0.20753309 -0.10980608 -0.23911218 -0.08256223 0.0984095 0.15549335 0.030485794
-0.11804969 0.11298591 0.27162072 -0.23481517 -0.15777093 -0.103734456 -0.05850268 0.043433335
0.059491012 0.26918447 0.20325024 0.2510361 0.21183433 -0.03043006 -0.14699246 0.2067178
0.119051725 0.18160939 0.0717143 0.2518304 0.039005764 -0.19936338 -0.067126945 -0.16601285
-0.13524896 -0.012012566 -0.07837262 0.18489756 -0.19638163 0.22551182 0.108072445 -0.044052925
0.16493168 0.24651584 0.22428232 -0.11143114 0.083959796 -0.20165381 -0.054421283 -0.23786533
-0.22966859 -0.26019025 -0.12182693 -0.15271991 -0.2235611 0.0235975 0.09390815 -0.066416584
-0.23261982 -0.1962129 -0.17335503 0.22682524 -0.17399673 -0.14796747 0.26044443 -0.015966296
-0.20089163 0.0059343874 0.18458746 0.1441216 0.103756085 0.22708498 0.13736707 0.019062327
-0.031491313 0.117585324 -0.103781454 0.03383017 -0.10498288 0.04841821 0.012253796 -0.06405779
0.22677411 0.013383288 0.10297148 0.09853715 -0.18851149 0.21040346 -0.19652711 0.16297446
-0.16824779 -0.24106462 -0.009404484 -0.03848791 -0.13087396 -0.18377422 0.061198387 0.1841336
0.08296378 0.10239516 0.032801002 0.19076692 -0.16931807 0.030484874 -0.17575735 0.18597329
0.10990795 0.011463138 -0.16369954 -0.0007444432 0.1806677 -0.14659034 0.27234113 -0.11901155
0.012431623 -0.0809825 -0.17108293 -0.08181286 -0.11726701 -0.054312814 0.20714468 0.0783681
0.007343813 -0.21034624 0.2079937 0.14182375 0.14776863 -0.11071564 0.1277446 -0.14487916

fc2.bias f4 [12]
00000000: 35bd 473e fa16 0bbe 3192 c43d 9379 193e
00000010: a57b 723e 55ff 5e3e 219f 4abc bff9 77be
00000020: 6596 083e 3ae2 52be 6325 733e cbc3 e13d
0.1950577 -0.13582984 0.09598196 0.14987783 0.23679979 0.21777089 -0.012367041 -0.24216364
0.13338621 -0.20594111 0.2374473 0.11023673

fc3.weight f4 [6, 24]
00000000: 1495 2d3e b598 083d 9f62 083e 6bb4 d7bd
00000010: 17d3 97bb aa52 863d 78a5 cabc 4063 3e3e
00000020: 4eff 1ebe f6c2 dc3d 6f1e 56bc c4b7 83bd
00000030: 9e4f 1dbe 1602 c13c 8848 f4bd c1fb 65be
00000040: 5fff df3d 90b4 b7bd b5ae 02be 81cc 05be
00000050: 31e1 193e 6fa5 b63d d614 ef3d 6e07 25bc
00000060: 4c0e 773d 8ba0 febc f101 913c dbb0 41bd
00000070: 315e 6338 89a5 bebd 560b 613d 7eaf 263e
00000080: 93f6 1e3e 532f 2bbe b488 b63b eb85 cebd
00000090: 6516 7f3d b322 363d d00e 843d a28d 95bd
000000a0: 4dbb 00be a283 22be 84ae 0a3e 3b0b ceb9
000000b0: 0b16 a7bd c316 823d 0ea6 283e 09ac e83b
000000c0: a4f3 08bd 81a3 2c3e c9e4 673d 2f82 5e3d
000000d0: bbb6 07be 11f2 47bd 6f51 223e 6283 3abe
000000e0: d7d5 aebd 0b07 d13d ce5b 153e a7cf ecbd
000000f0: 65a4 fa3c 7cd1 94bc b723 fe3c 3a9e e7bc
00000100: 2336 483d 4708 ee3d dc65 ef3c 62c6 9bbd
00000110: 7830 a5bd 736f 0a3e ee07 313e 829b 24be
00000120: da39 a2bd 8764 103e 7cb5 193d 2fde 3cbd
00000130: 97f3 c1bd 8a68 9cbc 078a c83d 516c e3bd
00000140: c9f7 42be 56aa 803c a912 01bd 1682 57bd
00000150: f5ef 823d d2cb 71bd 0411 1ebe 062c 153e
00000160: 652f 08be 0625 b1bd a7cb a2bc ccba 203c
00000170: a5fc 52bd b852 013d 9d4d 47bc eccc d33d
00000180: c2e2 643d 58c7 1e3e 3fdf c1bd fd2f b93d
00000190: f9c1 b03d 797f cabd 17c3 a03d 3d0d 2a3d
000001a0: e91e 15be e7ed 0a3e 1e06 c3bc 5e53 0f3d
000001b0: 8e89 333d 8930 913c cfe9 82bc e0e3 efbd
000001c0: cb6c cbbd 3ef8 a5bd 47d5 2d3e f7a1 c33d
000001d0: 0322 3b3e 09c8 dcbc aa64 223d 69a7 08be
000001e0: 3012 b5bd 13a6 3c3e 7cdb 093e 13b3 d53d
000001f0: 955b 3d3e 97f9 8d3d 8db3 74bd e182 81bd
00000200: 91ce aabd 55a8 1d3e cd13 48bd e487 debd
00000210: bfd7 d93d 360b 73bd a123 b6bd ba48 d8bd
00000220: 020d ccbd 81f6 7abd 63ea ad3d 0763 cebd
00000230: 12f5 31bd 2735 df3d a78a d93c f69d 70bd
0.169514 0.033348758 0.13318871 -0.10532459 -0.004633318 0.06558736 -0.024737105 0.18592548
-0.15527079 0.10779373 -0.013068779 -0.06431535 -0.15362403 0.023560565 -0.11927897 -0.22459318
0.1093738 -0.089699864 -0.12761958 -0.13066293 0.1502731 0.08918273 0.11673896 -0.010072572
0.06031637 -0.031082412 0.017701121 -0.047287803 5.420874e-05 -0.09308917 0.05494245 0.16277882
0.15523748 -0.16717272 0.0055704955 -0.100841366 0.062277216 0.044466686 0.06448138 -0.07302405
-0.1257145 -0.15870526 0.13543135 -0.0003929975 -0.08158501 0.06351998 0.16469595 0.0071005863
-0.03343548 0.16859247 0.05661467 0.05432337 -0.132533 -0.048814837 0.15851377 -0.18214181
-0.085368805 0.102064215 0.14585802 -0.11563044 0.030595968 -0.018166296 0.03102289 -0.02827369
0.048879754 0.116226725 0.029223375 -0.07606198 -0.08065885 0.13519077 0.17288181 -0.16074947
-0.079211906 0.14100848 0.037526593 -0.04611033 -0.09470289 -0.019092817 0.097919516 -0.11104644
-0.19039835 0.015706223 -0.031511936 -0.052614294 0.063934244 -0.05903227 -0.15436178 0.14567575
-0.1329933 -0.0864964 -0.0198725 0.009810161 -0.05151047 0.031573027 -0.012164501 0.1034182
0.055880316 0.15505731 -0.09466409 0.09042356 0.08630747 -0.09887595 0.078497104 0.04151653
-0.14562573 0.13567315 -0.023806628 0.034991615 0.043832354 0.017723339 -0.01598063 -0.117133856
-0.0993286 -0.08103989 0.1697589 0.09552377 0.18274693 -0.026950853 0.039646782 -0.13345112
-0.088413596 0.18422727 0.13462633 0.10434546 0.18491967 0.06932371 -0.059741545 -0.06323791
-0.08340181 0.15396245 -0.04884701 -0.10865763 0.106368534 -0.059336863 -0.088935144 -0.105607465
-0.099634185 -0.06127024 0.08491971 -0.10077482 -0.043446608 0.1089881 0.026555372 -0.058744393

fc3.bias f4 [6]
00000000: 28ea a63c bfbe e4bd f8d1 3abe fc40 47bb
00000010: 4329 0cbe 4d35 453e
0.020375326 -0.111691944 -0.18244159 -0.0030403724 -0.13687615 0.19258614
